<?xml version="1.0" ?>
<net name="gaze-estimation-adas-0002" version="10">
	<layers>
		<layer id="0" name="5315353100" type="Const" version="opset1">
			<data element_type="f16" offset="0" shape="" size="2"/>
			<output>
				<port id="0" precision="FP16"/>
			</output>
		</layer>
		<layer id="1" name="5325363220" type="Const" version="opset1">
			<data element_type="f16" offset="2" shape="" size="2"/>
			<output>
				<port id="0" precision="FP16"/>
			</output>
		</layer>
		<layer id="2" name="5335373235" type="Const" version="opset1">
			<data element_type="f16" offset="0" shape="" size="2"/>
			<output>
				<port id="0" precision="FP16"/>
			</output>
		</layer>
		<layer id="3" name="5345383124" type="Const" version="opset1">
			<data element_type="f16" offset="2" shape="" size="2"/>
			<output>
				<port id="0" precision="FP16"/>
			</output>
		</layer>
		<layer id="4" name="6516553286" type="Const" version="opset1">
			<data element_type="f16" offset="4" shape="" size="2"/>
			<output>
				<port id="0" precision="FP16"/>
			</output>
		</layer>
		<layer id="5" name="6526563157" type="Const" version="opset1">
			<data element_type="f16" offset="6" shape="" size="2"/>
			<output>
				<port id="0" precision="FP16"/>
			</output>
		</layer>
		<layer id="6" name="6536573493" type="Const" version="opset1">
			<data element_type="f16" offset="4" shape="" size="2"/>
			<output>
				<port id="0" precision="FP16"/>
			</output>
		</layer>
		<layer id="7" name="6546583340" type="Const" version="opset1">
			<data element_type="f16" offset="6" shape="" size="2"/>
			<output>
				<port id="0" precision="FP16"/>
			</output>
		</layer>
		<layer id="8" name="141/Dims2823262" type="Const" version="opset1">
			<data element_type="i64" offset="8" shape="1" size="8"/>
			<output>
				<port id="0" precision="I64">
					<dim>1</dim>
				</port>
			</output>
		</layer>
		<layer id="9" name="140/Dims2803460" type="Const" version="opset1">
			<data element_type="i64" offset="16" shape="1" size="8"/>
			<output>
				<port id="0" precision="I64">
					<dim>1</dim>
				</port>
			</output>
		</layer>
		<layer id="10" name="113911433379" type="Const" version="opset1">
			<data element_type="f16" offset="24" shape="" size="2"/>
			<output>
				<port id="0" precision="FP16"/>
			</output>
		</layer>
		<layer id="11" name="114011443331" type="Const" version="opset1">
			<data element_type="f16" offset="26" shape="" size="2"/>
			<output>
				<port id="0" precision="FP16"/>
			</output>
		</layer>
		<layer id="12" name="114111452995" type="Const" version="opset1">
			<data element_type="f16" offset="24" shape="" size="2"/>
			<output>
				<port id="0" precision="FP16"/>
			</output>
		</layer>
		<layer id="13" name="114211463313" type="Const" version="opset1">
			<data element_type="f16" offset="26" shape="" size="2"/>
			<output>
				<port id="0" precision="FP16"/>
			</output>
		</layer>
		<layer id="14" name="head_pose_angles" type="Parameter" version="opset1">
			<data element_type="f16" shape="1,3"/>
			<output>
				<port id="0" names="head_pose_angles" precision="FP16">
					<dim>1</dim>
					<dim>3</dim>
				</port>
			</output>
		</layer>
		<layer id="15" name="138/fq_input_0" type="FakeQuantize" version="opset1">
			<data auto_broadcast="numpy" levels="256"/>
			<input>
				<port id="0">
					<dim>1</dim>
					<dim>3</dim>
				</port>
				<port id="1"/>
				<port id="2"/>
				<port id="3"/>
				<port id="4"/>
			</input>
			<output>
				<port id="5" precision="FP16">
					<dim>1</dim>
					<dim>3</dim>
				</port>
			</output>
		</layer>
		<layer id="16" name="132" type="ShapeOf" version="opset3">
			<data output_type="i64"/>
			<input>
				<port id="0">
					<dim>1</dim>
					<dim>3</dim>
				</port>
			</input>
			<output>
				<port id="1" names="132" precision="I64">
					<dim>2</dim>
				</port>
			</output>
		</layer>
		<layer id="17" name="131271" type="Const" version="opset1">
			<data element_type="i32" offset="28" shape="" size="4"/>
			<output>
				<port id="0" names="131" precision="I32"/>
			</output>
		</layer>
		<layer id="18" name="133/axis272" type="Const" version="opset1">
			<data element_type="i64" offset="32" shape="" size="8"/>
			<output>
				<port id="0" precision="I64"/>
			</output>
		</layer>
		<layer id="19" name="133179" type="Gather" version="opset7">
			<data batch_dims="0"/>
			<input>
				<port id="0">
					<dim>2</dim>
				</port>
				<port id="1"/>
				<port id="2"/>
			</input>
			<output>
				<port id="3" names="133" precision="I64"/>
			</output>
		</layer>
		<layer id="20" name="135/Dims2743475" type="Const" version="opset1">
			<data element_type="i64" offset="32" shape="1" size="8"/>
			<output>
				<port id="0" precision="I64">
					<dim>1</dim>
				</port>
			</output>
		</layer>
		<layer id="21" name="135/Unsqueeze" type="Unsqueeze" version="opset1">
			<input>
				<port id="0"/>
				<port id="1">
					<dim>1</dim>
				</port>
			</input>
			<output>
				<port id="2" names="135" precision="I64">
					<dim>1</dim>
				</port>
			</output>
		</layer>
		<layer id="22" name="136/Unsqueeze2763199" type="Const" version="opset1">
			<data element_type="i64" offset="40" shape="1" size="8"/>
			<output>
				<port id="0" names="136" precision="I64">
					<dim>1</dim>
				</port>
			</output>
		</layer>
		<layer id="23" name="137" type="Concat" version="opset1">
			<data axis="0"/>
			<input>
				<port id="0">
					<dim>1</dim>
				</port>
				<port id="1">
					<dim>1</dim>
				</port>
			</input>
			<output>
				<port id="2" names="137" precision="I64">
					<dim>2</dim>
				</port>
			</output>
		</layer>
		<layer id="24" name="138" type="Reshape" version="opset1">
			<data special_zero="true"/>
			<input>
				<port id="0">
					<dim>1</dim>
					<dim>3</dim>
				</port>
				<port id="1">
					<dim>2</dim>
				</port>
			</input>
			<output>
				<port id="2" names="138" precision="FP16">
					<dim>1</dim>
					<dim>3</dim>
				</port>
			</output>
		</layer>
		<layer id="25" name="114911533361" type="Const" version="opset1">
			<data element_type="f16" offset="48" shape="" size="2"/>
			<output>
				<port id="0" precision="FP16"/>
			</output>
		</layer>
		<layer id="26" name="115011543214" type="Const" version="opset1">
			<data element_type="f16" offset="50" shape="" size="2"/>
			<output>
				<port id="0" precision="FP16"/>
			</output>
		</layer>
		<layer id="27" name="115111552998" type="Const" version="opset1">
			<data element_type="f16" offset="48" shape="" size="2"/>
			<output>
				<port id="0" precision="FP16"/>
			</output>
		</layer>
		<layer id="28" name="115211563346" type="Const" version="opset1">
			<data element_type="f16" offset="50" shape="" size="2"/>
			<output>
				<port id="0" precision="FP16"/>
			</output>
		</layer>
		<layer id="29" name="7717753004" type="Const" version="opset1">
			<data element_type="f16" offset="52" shape="" size="2"/>
			<output>
				<port id="0" precision="FP16"/>
			</output>
		</layer>
		<layer id="30" name="7727763187" type="Const" version="opset1">
			<data element_type="f16" offset="54" shape="" size="2"/>
			<output>
				<port id="0" precision="FP16"/>
			</output>
		</layer>
		<layer id="31" name="7737773394" type="Const" version="opset1">
			<data element_type="f16" offset="52" shape="" size="2"/>
			<output>
				<port id="0" precision="FP16"/>
			</output>
		</layer>
		<layer id="32" name="7747783316" type="Const" version="opset1">
			<data element_type="f16" offset="54" shape="" size="2"/>
			<output>
				<port id="0" precision="FP16"/>
			</output>
		</layer>
		<layer id="33" name="7517553031" type="Const" version="opset1">
			<data element_type="f16" offset="56" shape="" size="2"/>
			<output>
				<port id="0" precision="FP16"/>
			</output>
		</layer>
		<layer id="34" name="7527563433" type="Const" version="opset1">
			<data element_type="f16" offset="58" shape="" size="2"/>
			<output>
				<port id="0" precision="FP16"/>
			</output>
		</layer>
		<layer id="35" name="7537573397" type="Const" version="opset1">
			<data element_type="f16" offset="56" shape="" size="2"/>
			<output>
				<port id="0" precision="FP16"/>
			</output>
		</layer>
		<layer id="36" name="7547583265" type="Const" version="opset1">
			<data element_type="f16" offset="58" shape="" size="2"/>
			<output>
				<port id="0" precision="FP16"/>
			</output>
		</layer>
		<layer id="37" name="8118153061" type="Const" version="opset1">
			<data element_type="f16" offset="60" shape="" size="2"/>
			<output>
				<port id="0" precision="FP16"/>
			</output>
		</layer>
		<layer id="38" name="8128163211" type="Const" version="opset1">
			<data element_type="f16" offset="62" shape="" size="2"/>
			<output>
				<port id="0" precision="FP16"/>
			</output>
		</layer>
		<layer id="39" name="8138173139" type="Const" version="opset1">
			<data element_type="f16" offset="60" shape="" size="2"/>
			<output>
				<port id="0" precision="FP16"/>
			</output>
		</layer>
		<layer id="40" name="8148183193" type="Const" version="opset1">
			<data element_type="f16" offset="62" shape="" size="2"/>
			<output>
				<port id="0" precision="FP16"/>
			</output>
		</layer>
		<layer id="41" name="5515553463" type="Const" version="opset1">
			<data element_type="f16" offset="64" shape="" size="2"/>
			<output>
				<port id="0" precision="FP16"/>
			</output>
		</layer>
		<layer id="42" name="5525563145" type="Const" version="opset1">
			<data element_type="f16" offset="66" shape="" size="2"/>
			<output>
				<port id="0" precision="FP16"/>
			</output>
		</layer>
		<layer id="43" name="5535573454" type="Const" version="opset1">
			<data element_type="f16" offset="64" shape="" size="2"/>
			<output>
				<port id="0" precision="FP16"/>
			</output>
		</layer>
		<layer id="44" name="5545583367" type="Const" version="opset1">
			<data element_type="f16" offset="66" shape="" size="2"/>
			<output>
				<port id="0" precision="FP16"/>
			</output>
		</layer>
		<layer id="45" name="7317352965" type="Const" version="opset1">
			<data element_type="f16" offset="68" shape="" size="2"/>
			<output>
				<port id="0" precision="FP16"/>
			</output>
		</layer>
		<layer id="46" name="7327363106" type="Const" version="opset1">
			<data element_type="f16" offset="70" shape="" size="2"/>
			<output>
				<port id="0" precision="FP16"/>
			</output>
		</layer>
		<layer id="47" name="7337373040" type="Const" version="opset1">
			<data element_type="f16" offset="68" shape="" size="2"/>
			<output>
				<port id="0" precision="FP16"/>
			</output>
		</layer>
		<layer id="48" name="7347383427" type="Const" version="opset1">
			<data element_type="f16" offset="70" shape="" size="2"/>
			<output>
				<port id="0" precision="FP16"/>
			</output>
		</layer>
		<layer id="49" name="107910833226" type="Const" version="opset1">
			<data element_type="f16" offset="72" shape="" size="2"/>
			<output>
				<port id="0" precision="FP16"/>
			</output>
		</layer>
		<layer id="50" name="108010843133" type="Const" version="opset1">
			<data element_type="f16" offset="74" shape="" size="2"/>
			<output>
				<port id="0" precision="FP16"/>
			</output>
		</layer>
		<layer id="51" name="108110853442" type="Const" version="opset1">
			<data element_type="f16" offset="72" shape="" size="2"/>
			<output>
				<port id="0" precision="FP16"/>
			</output>
		</layer>
		<layer id="52" name="108210863385" type="Const" version="opset1">
			<data element_type="f16" offset="74" shape="" size="2"/>
			<output>
				<port id="0" precision="FP16"/>
			</output>
		</layer>
		<layer id="53" name="7117153376" type="Const" version="opset1">
			<data element_type="f16" offset="76" shape="" size="2"/>
			<output>
				<port id="0" precision="FP16"/>
			</output>
		</layer>
		<layer id="54" name="7127163190" type="Const" version="opset1">
			<data element_type="f16" offset="78" shape="" size="2"/>
			<output>
				<port id="0" precision="FP16"/>
			</output>
		</layer>
		<layer id="55" name="7137173070" type="Const" version="opset1">
			<data element_type="f16" offset="76" shape="" size="2"/>
			<output>
				<port id="0" precision="FP16"/>
			</output>
		</layer>
		<layer id="56" name="7147182968" type="Const" version="opset1">
			<data element_type="f16" offset="78" shape="" size="2"/>
			<output>
				<port id="0" precision="FP16"/>
			</output>
		</layer>
		<layer id="57" name="8318353349" type="Const" version="opset1">
			<data element_type="f16" offset="80" shape="" size="2"/>
			<output>
				<port id="0" precision="FP16"/>
			</output>
		</layer>
		<layer id="58" name="8328363172" type="Const" version="opset1">
			<data element_type="f16" offset="82" shape="" size="2"/>
			<output>
				<port id="0" precision="FP16"/>
			</output>
		</layer>
		<layer id="59" name="8338373076" type="Const" version="opset1">
			<data element_type="f16" offset="80" shape="" size="2"/>
			<output>
				<port id="0" precision="FP16"/>
			</output>
		</layer>
		<layer id="60" name="8348383253" type="Const" version="opset1">
			<data element_type="f16" offset="82" shape="" size="2"/>
			<output>
				<port id="0" precision="FP16"/>
			</output>
		</layer>
		<layer id="61" name="6916953388" type="Const" version="opset1">
			<data element_type="f16" offset="84" shape="" size="2"/>
			<output>
				<port id="0" precision="FP16"/>
			</output>
		</layer>
		<layer id="62" name="6926963058" type="Const" version="opset1">
			<data element_type="f16" offset="86" shape="" size="2"/>
			<output>
				<port id="0" precision="FP16"/>
			</output>
		</layer>
		<layer id="63" name="6936973151" type="Const" version="opset1">
			<data element_type="f16" offset="84" shape="" size="2"/>
			<output>
				<port id="0" precision="FP16"/>
			</output>
		</layer>
		<layer id="64" name="6946983247" type="Const" version="opset1">
			<data element_type="f16" offset="86" shape="" size="2"/>
			<output>
				<port id="0" precision="FP16"/>
			</output>
		</layer>
		<layer id="65" name="6716753082" type="Const" version="opset1">
			<data element_type="f16" offset="88" shape="" size="2"/>
			<output>
				<port id="0" precision="FP16"/>
			</output>
		</layer>
		<layer id="66" name="6726763163" type="Const" version="opset1">
			<data element_type="f16" offset="90" shape="" size="2"/>
			<output>
				<port id="0" precision="FP16"/>
			</output>
		</layer>
		<layer id="67" name="6736773415" type="Const" version="opset1">
			<data element_type="f16" offset="88" shape="" size="2"/>
			<output>
				<port id="0" precision="FP16"/>
			</output>
		</layer>
		<layer id="68" name="6746783127" type="Const" version="opset1">
			<data element_type="f16" offset="90" shape="" size="2"/>
			<output>
				<port id="0" precision="FP16"/>
			</output>
		</layer>
		<layer id="69" name="left_eye_image" type="Parameter" version="opset1">
			<data element_type="f16" shape="1,3,60,60"/>
			<output>
				<port id="0" names="left_eye_image" precision="FP16">
					<dim>1</dim>
					<dim>3</dim>
					<dim>60</dim>
					<dim>60</dim>
				</port>
			</output>
		</layer>
		<layer id="70" name="data_mul_309130951613424" type="Const" version="opset1">
			<data element_type="f16" offset="92" shape="1,3,1,1" size="6"/>
			<output>
				<port id="0" precision="FP16">
					<dim>1</dim>
					<dim>3</dim>
					<dim>1</dim>
					<dim>1</dim>
				</port>
			</output>
		</layer>
		<layer id="71" name="92/mean/Fused_Mul_" type="Multiply" version="opset1">
			<data auto_broadcast="numpy"/>
			<input>
				<port id="0">
					<dim>1</dim>
					<dim>3</dim>
					<dim>60</dim>
					<dim>60</dim>
				</port>
				<port id="1">
					<dim>1</dim>
					<dim>3</dim>
					<dim>1</dim>
					<dim>1</dim>
				</port>
			</input>
			<output>
				<port id="2" precision="FP16">
					<dim>1</dim>
					<dim>3</dim>
					<dim>60</dim>
					<dim>60</dim>
				</port>
			</output>
		</layer>
		<layer id="72" name="data_add_309230971633271" type="Const" version="opset1">
			<data element_type="f16" offset="98" shape="1,3,1,1" size="6"/>
			<output>
				<port id="0" precision="FP16">
					<dim>1</dim>
					<dim>3</dim>
					<dim>1</dim>
					<dim>1</dim>
				</port>
			</output>
		</layer>
		<layer id="73" name="92/variance/Fused_Add_" type="Add" version="opset1">
			<data auto_broadcast="numpy"/>
			<input>
				<port id="0">
					<dim>1</dim>
					<dim>3</dim>
					<dim>60</dim>
					<dim>60</dim>
				</port>
				<port id="1">
					<dim>1</dim>
					<dim>3</dim>
					<dim>1</dim>
					<dim>1</dim>
				</port>
			</input>
			<output>
				<port id="2" names="92" precision="FP16">
					<dim>1</dim>
					<dim>3</dim>
					<dim>60</dim>
					<dim>60</dim>
				</port>
			</output>
		</layer>
		<layer id="74" name="93/WithoutBiases/fq_input_0" type="FakeQuantize" version="opset1">
			<data auto_broadcast="numpy" levels="256"/>
			<input>
				<port id="0">
					<dim>1</dim>
					<dim>3</dim>
					<dim>60</dim>
					<dim>60</dim>
				</port>
				<port id="1"/>
				<port id="2"/>
				<port id="3"/>
				<port id="4"/>
			</input>
			<output>
				<port id="5" precision="FP16">
					<dim>1</dim>
					<dim>3</dim>
					<dim>60</dim>
					<dim>60</dim>
				</port>
			</output>
		</layer>
		<layer id="75" name="81651592/quantized21013091" type="Const" version="opset1">
			<data element_type="i8" offset="104" shape="32,3,3,3" size="864"/>
			<output>
				<port id="0" precision="I8">
					<dim>32</dim>
					<dim>3</dim>
					<dim>3</dim>
					<dim>3</dim>
				</port>
			</output>
		</layer>
		<layer id="76" name="81651592/quantized/to_f16" type="Convert" version="opset1">
			<data destination_type="f16"/>
			<input>
				<port id="0">
					<dim>32</dim>
					<dim>3</dim>
					<dim>3</dim>
					<dim>3</dim>
				</port>
			</input>
			<output>
				<port id="1" precision="FP16">
					<dim>32</dim>
					<dim>3</dim>
					<dim>3</dim>
					<dim>3</dim>
				</port>
			</output>
		</layer>
		<layer id="77" name="93/WithoutBiases/fq_weights_1/zero_point21143358" type="Const" version="opset1">
			<data element_type="f16" offset="968" shape="32,1,1,1" size="64"/>
			<output>
				<port id="0" precision="FP16">
					<dim>32</dim>
					<dim>1</dim>
					<dim>1</dim>
					<dim>1</dim>
				</port>
			</output>
		</layer>
		<layer id="78" name="93/WithoutBiases/fq_weights_1/minus_zp" type="Subtract" version="opset1">
			<data auto_broadcast="numpy"/>
			<input>
				<port id="0">
					<dim>32</dim>
					<dim>3</dim>
					<dim>3</dim>
					<dim>3</dim>
				</port>
				<port id="1">
					<dim>32</dim>
					<dim>1</dim>
					<dim>1</dim>
					<dim>1</dim>
				</port>
			</input>
			<output>
				<port id="2" precision="FP16">
					<dim>32</dim>
					<dim>3</dim>
					<dim>3</dim>
					<dim>3</dim>
				</port>
			</output>
		</layer>
		<layer id="79" name="93/WithoutBiases/fq_weights_1/scale21093232" type="Const" version="opset1">
			<data element_type="f16" offset="1032" shape="32,1,1,1" size="64"/>
			<output>
				<port id="0" precision="FP16">
					<dim>32</dim>
					<dim>1</dim>
					<dim>1</dim>
					<dim>1</dim>
				</port>
			</output>
		</layer>
		<layer id="80" name="93/WithoutBiases/fq_weights_1/mulpiply_by_scale" type="Multiply" version="opset1">
			<data auto_broadcast="numpy"/>
			<input>
				<port id="0">
					<dim>32</dim>
					<dim>3</dim>
					<dim>3</dim>
					<dim>3</dim>
				</port>
				<port id="1">
					<dim>32</dim>
					<dim>1</dim>
					<dim>1</dim>
					<dim>1</dim>
				</port>
			</input>
			<output>
				<port id="2" precision="FP16">
					<dim>32</dim>
					<dim>3</dim>
					<dim>3</dim>
					<dim>3</dim>
				</port>
			</output>
		</layer>
		<layer id="81" name="93/WithoutBiases" type="Convolution" version="opset1">
			<data auto_pad="explicit" dilations="1,1" pads_begin="1,1" pads_end="1,1" strides="1,1"/>
			<input>
				<port id="0">
					<dim>1</dim>
					<dim>3</dim>
					<dim>60</dim>
					<dim>60</dim>
				</port>
				<port id="1">
					<dim>32</dim>
					<dim>3</dim>
					<dim>3</dim>
					<dim>3</dim>
				</port>
			</input>
			<output>
				<port id="2" precision="FP16">
					<dim>1</dim>
					<dim>32</dim>
					<dim>60</dim>
					<dim>60</dim>
				</port>
			</output>
		</layer>
		<layer id="82" name="93/Dims17861673298" type="Const" version="opset1">
			<data element_type="f16" offset="1096" shape="1,32,1,1" size="64"/>
			<output>
				<port id="0" precision="FP16">
					<dim>1</dim>
					<dim>32</dim>
					<dim>1</dim>
					<dim>1</dim>
				</port>
			</output>
		</layer>
		<layer id="83" name="93" type="Add" version="opset1">
			<data auto_broadcast="numpy"/>
			<input>
				<port id="0">
					<dim>1</dim>
					<dim>32</dim>
					<dim>60</dim>
					<dim>60</dim>
				</port>
				<port id="1">
					<dim>1</dim>
					<dim>32</dim>
					<dim>1</dim>
					<dim>1</dim>
				</port>
			</input>
			<output>
				<port id="2" names="93" precision="FP16">
					<dim>1</dim>
					<dim>32</dim>
					<dim>60</dim>
					<dim>60</dim>
				</port>
			</output>
		</layer>
		<layer id="84" name="94" type="ReLU" version="opset1">
			<input>
				<port id="0">
					<dim>1</dim>
					<dim>32</dim>
					<dim>60</dim>
					<dim>60</dim>
				</port>
			</input>
			<output>
				<port id="1" names="94" precision="FP16">
					<dim>1</dim>
					<dim>32</dim>
					<dim>60</dim>
					<dim>60</dim>
				</port>
			</output>
		</layer>
		<layer id="85" name="data_mul_309931031703487" type="Const" version="opset1">
			<data element_type="f16" offset="1160" shape="1,32,1,1" size="64"/>
			<output>
				<port id="0" precision="FP16">
					<dim>1</dim>
					<dim>32</dim>
					<dim>1</dim>
					<dim>1</dim>
				</port>
			</output>
		</layer>
		<layer id="86" name="95/mean/Fused_Mul_" type="Multiply" version="opset1">
			<data auto_broadcast="numpy"/>
			<input>
				<port id="0">
					<dim>1</dim>
					<dim>32</dim>
					<dim>60</dim>
					<dim>60</dim>
				</port>
				<port id="1">
					<dim>1</dim>
					<dim>32</dim>
					<dim>1</dim>
					<dim>1</dim>
				</port>
			</input>
			<output>
				<port id="2" precision="FP16">
					<dim>1</dim>
					<dim>32</dim>
					<dim>60</dim>
					<dim>60</dim>
				</port>
			</output>
		</layer>
		<layer id="87" name="data_add_310031051722992" type="Const" version="opset1">
			<data element_type="f16" offset="1224" shape="1,32,1,1" size="64"/>
			<output>
				<port id="0" precision="FP16">
					<dim>1</dim>
					<dim>32</dim>
					<dim>1</dim>
					<dim>1</dim>
				</port>
			</output>
		</layer>
		<layer id="88" name="95/variance/Fused_Add_" type="Add" version="opset1">
			<data auto_broadcast="numpy"/>
			<input>
				<port id="0">
					<dim>1</dim>
					<dim>32</dim>
					<dim>60</dim>
					<dim>60</dim>
				</port>
				<port id="1">
					<dim>1</dim>
					<dim>32</dim>
					<dim>1</dim>
					<dim>1</dim>
				</port>
			</input>
			<output>
				<port id="2" names="95" precision="FP16">
					<dim>1</dim>
					<dim>32</dim>
					<dim>60</dim>
					<dim>60</dim>
				</port>
			</output>
		</layer>
		<layer id="89" name="96/WithoutBiases/fq_input_0" type="FakeQuantize" version="opset1">
			<data auto_broadcast="numpy" levels="256"/>
			<input>
				<port id="0">
					<dim>1</dim>
					<dim>32</dim>
					<dim>60</dim>
					<dim>60</dim>
				</port>
				<port id="1"/>
				<port id="2"/>
				<port id="3"/>
				<port id="4"/>
			</input>
			<output>
				<port id="5" precision="FP16">
					<dim>1</dim>
					<dim>32</dim>
					<dim>60</dim>
					<dim>60</dim>
				</port>
			</output>
		</layer>
		<layer id="90" name="151741596/quantized20773364" type="Const" version="opset1">
			<data element_type="i8" offset="1288" shape="16,32,3,3" size="4608"/>
			<output>
				<port id="0" precision="I8">
					<dim>16</dim>
					<dim>32</dim>
					<dim>3</dim>
					<dim>3</dim>
				</port>
			</output>
		</layer>
		<layer id="91" name="151741596/quantized/to_f16" type="Convert" version="opset1">
			<data destination_type="f16"/>
			<input>
				<port id="0">
					<dim>16</dim>
					<dim>32</dim>
					<dim>3</dim>
					<dim>3</dim>
				</port>
			</input>
			<output>
				<port id="1" precision="FP16">
					<dim>16</dim>
					<dim>32</dim>
					<dim>3</dim>
					<dim>3</dim>
				</port>
			</output>
		</layer>
		<layer id="92" name="96/WithoutBiases/fq_weights_1/zero_point20903304" type="Const" version="opset1">
			<data element_type="f16" offset="5896" shape="16,1,1,1" size="32"/>
			<output>
				<port id="0" precision="FP16">
					<dim>16</dim>
					<dim>1</dim>
					<dim>1</dim>
					<dim>1</dim>
				</port>
			</output>
		</layer>
		<layer id="93" name="96/WithoutBiases/fq_weights_1/minus_zp" type="Subtract" version="opset1">
			<data auto_broadcast="numpy"/>
			<input>
				<port id="0">
					<dim>16</dim>
					<dim>32</dim>
					<dim>3</dim>
					<dim>3</dim>
				</port>
				<port id="1">
					<dim>16</dim>
					<dim>1</dim>
					<dim>1</dim>
					<dim>1</dim>
				</port>
			</input>
			<output>
				<port id="2" precision="FP16">
					<dim>16</dim>
					<dim>32</dim>
					<dim>3</dim>
					<dim>3</dim>
				</port>
			</output>
		</layer>
		<layer id="94" name="96/WithoutBiases/fq_weights_1/scale20853484" type="Const" version="opset1">
			<data element_type="f16" offset="5928" shape="16,1,1,1" size="32"/>
			<output>
				<port id="0" precision="FP16">
					<dim>16</dim>
					<dim>1</dim>
					<dim>1</dim>
					<dim>1</dim>
				</port>
			</output>
		</layer>
		<layer id="95" name="96/WithoutBiases/fq_weights_1/mulpiply_by_scale" type="Multiply" version="opset1">
			<data auto_broadcast="numpy"/>
			<input>
				<port id="0">
					<dim>16</dim>
					<dim>32</dim>
					<dim>3</dim>
					<dim>3</dim>
				</port>
				<port id="1">
					<dim>16</dim>
					<dim>1</dim>
					<dim>1</dim>
					<dim>1</dim>
				</port>
			</input>
			<output>
				<port id="2" precision="FP16">
					<dim>16</dim>
					<dim>32</dim>
					<dim>3</dim>
					<dim>3</dim>
				</port>
			</output>
		</layer>
		<layer id="96" name="96/WithoutBiases" type="Convolution" version="opset1">
			<data auto_pad="explicit" dilations="1,1" pads_begin="1,1" pads_end="1,1" strides="2,2"/>
			<input>
				<port id="0">
					<dim>1</dim>
					<dim>32</dim>
					<dim>60</dim>
					<dim>60</dim>
				</port>
				<port id="1">
					<dim>16</dim>
					<dim>32</dim>
					<dim>3</dim>
					<dim>3</dim>
				</port>
			</input>
			<output>
				<port id="2" precision="FP16">
					<dim>1</dim>
					<dim>16</dim>
					<dim>30</dim>
					<dim>30</dim>
				</port>
			</output>
		</layer>
		<layer id="97" name="96/Dims17681763001" type="Const" version="opset1">
			<data element_type="f16" offset="5960" shape="1,16,1,1" size="32"/>
			<output>
				<port id="0" precision="FP16">
					<dim>1</dim>
					<dim>16</dim>
					<dim>1</dim>
					<dim>1</dim>
				</port>
			</output>
		</layer>
		<layer id="98" name="96" type="Add" version="opset1">
			<data auto_broadcast="numpy"/>
			<input>
				<port id="0">
					<dim>1</dim>
					<dim>16</dim>
					<dim>30</dim>
					<dim>30</dim>
				</port>
				<port id="1">
					<dim>1</dim>
					<dim>16</dim>
					<dim>1</dim>
					<dim>1</dim>
				</port>
			</input>
			<output>
				<port id="2" names="96" precision="FP16">
					<dim>1</dim>
					<dim>16</dim>
					<dim>30</dim>
					<dim>30</dim>
				</port>
			</output>
		</layer>
		<layer id="99" name="97/WithoutBiases/fq_input_0" type="FakeQuantize" version="opset1">
			<data auto_broadcast="numpy" levels="256"/>
			<input>
				<port id="0">
					<dim>1</dim>
					<dim>16</dim>
					<dim>30</dim>
					<dim>30</dim>
				</port>
				<port id="1"/>
				<port id="2"/>
				<port id="3"/>
				<port id="4"/>
			</input>
			<output>
				<port id="5" precision="FP16">
					<dim>1</dim>
					<dim>16</dim>
					<dim>30</dim>
					<dim>30</dim>
				</port>
			</output>
		</layer>
		<layer id="100" name="171781598/quantized20292986" type="Const" version="opset1">
			<data element_type="i8" offset="5992" shape="64,16,3,3" size="9216"/>
			<output>
				<port id="0" precision="I8">
					<dim>64</dim>
					<dim>16</dim>
					<dim>3</dim>
					<dim>3</dim>
				</port>
			</output>
		</layer>
		<layer id="101" name="171781598/quantized/to_f16" type="Convert" version="opset1">
			<data destination_type="f16"/>
			<input>
				<port id="0">
					<dim>64</dim>
					<dim>16</dim>
					<dim>3</dim>
					<dim>3</dim>
				</port>
			</input>
			<output>
				<port id="1" precision="FP16">
					<dim>64</dim>
					<dim>16</dim>
					<dim>3</dim>
					<dim>3</dim>
				</port>
			</output>
		</layer>
		<layer id="102" name="97/WithoutBiases/fq_weights_1/zero_point20423241" type="Const" version="opset1">
			<data element_type="f16" offset="15208" shape="64,1,1,1" size="128"/>
			<output>
				<port id="0" precision="FP16">
					<dim>64</dim>
					<dim>1</dim>
					<dim>1</dim>
					<dim>1</dim>
				</port>
			</output>
		</layer>
		<layer id="103" name="97/WithoutBiases/fq_weights_1/minus_zp" type="Subtract" version="opset1">
			<data auto_broadcast="numpy"/>
			<input>
				<port id="0">
					<dim>64</dim>
					<dim>16</dim>
					<dim>3</dim>
					<dim>3</dim>
				</port>
				<port id="1">
					<dim>64</dim>
					<dim>1</dim>
					<dim>1</dim>
					<dim>1</dim>
				</port>
			</input>
			<output>
				<port id="2" precision="FP16">
					<dim>64</dim>
					<dim>16</dim>
					<dim>3</dim>
					<dim>3</dim>
				</port>
			</output>
		</layer>
		<layer id="104" name="97/WithoutBiases/fq_weights_1/scale20373136" type="Const" version="opset1">
			<data element_type="f16" offset="15336" shape="64,1,1,1" size="128"/>
			<output>
				<port id="0" precision="FP16">
					<dim>64</dim>
					<dim>1</dim>
					<dim>1</dim>
					<dim>1</dim>
				</port>
			</output>
		</layer>
		<layer id="105" name="97/WithoutBiases/fq_weights_1/mulpiply_by_scale" type="Multiply" version="opset1">
			<data auto_broadcast="numpy"/>
			<input>
				<port id="0">
					<dim>64</dim>
					<dim>16</dim>
					<dim>3</dim>
					<dim>3</dim>
				</port>
				<port id="1">
					<dim>64</dim>
					<dim>1</dim>
					<dim>1</dim>
					<dim>1</dim>
				</port>
			</input>
			<output>
				<port id="2" precision="FP16">
					<dim>64</dim>
					<dim>16</dim>
					<dim>3</dim>
					<dim>3</dim>
				</port>
			</output>
		</layer>
		<layer id="106" name="97/WithoutBiases" type="Convolution" version="opset1">
			<data auto_pad="explicit" dilations="1,1" pads_begin="1,1" pads_end="1,1" strides="1,1"/>
			<input>
				<port id="0">
					<dim>1</dim>
					<dim>16</dim>
					<dim>30</dim>
					<dim>30</dim>
				</port>
				<port id="1">
					<dim>64</dim>
					<dim>16</dim>
					<dim>3</dim>
					<dim>3</dim>
				</port>
			</input>
			<output>
				<port id="2" precision="FP16">
					<dim>1</dim>
					<dim>64</dim>
					<dim>30</dim>
					<dim>30</dim>
				</port>
			</output>
		</layer>
		<layer id="107" name="97/Dims17501803166" type="Const" version="opset1">
			<data element_type="f16" offset="15464" shape="1,64,1,1" size="128"/>
			<output>
				<port id="0" precision="FP16">
					<dim>1</dim>
					<dim>64</dim>
					<dim>1</dim>
					<dim>1</dim>
				</port>
			</output>
		</layer>
		<layer id="108" name="97" type="Add" version="opset1">
			<data auto_broadcast="numpy"/>
			<input>
				<port id="0">
					<dim>1</dim>
					<dim>64</dim>
					<dim>30</dim>
					<dim>30</dim>
				</port>
				<port id="1">
					<dim>1</dim>
					<dim>64</dim>
					<dim>1</dim>
					<dim>1</dim>
				</port>
			</input>
			<output>
				<port id="2" names="97" precision="FP16">
					<dim>1</dim>
					<dim>64</dim>
					<dim>30</dim>
					<dim>30</dim>
				</port>
			</output>
		</layer>
		<layer id="109" name="98" type="ReLU" version="opset1">
			<input>
				<port id="0">
					<dim>1</dim>
					<dim>64</dim>
					<dim>30</dim>
					<dim>30</dim>
				</port>
			</input>
			<output>
				<port id="1" names="98" precision="FP16">
					<dim>1</dim>
					<dim>64</dim>
					<dim>30</dim>
					<dim>30</dim>
				</port>
			</output>
		</layer>
		<layer id="110" name="data_mul_310731111833319" type="Const" version="opset1">
			<data element_type="f16" offset="15592" shape="1,64,1,1" size="128"/>
			<output>
				<port id="0" precision="FP16">
					<dim>1</dim>
					<dim>64</dim>
					<dim>1</dim>
					<dim>1</dim>
				</port>
			</output>
		</layer>
		<layer id="111" name="99/mean/Fused_Mul_" type="Multiply" version="opset1">
			<data auto_broadcast="numpy"/>
			<input>
				<port id="0">
					<dim>1</dim>
					<dim>64</dim>
					<dim>30</dim>
					<dim>30</dim>
				</port>
				<port id="1">
					<dim>1</dim>
					<dim>64</dim>
					<dim>1</dim>
					<dim>1</dim>
				</port>
			</input>
			<output>
				<port id="2" precision="FP16">
					<dim>1</dim>
					<dim>64</dim>
					<dim>30</dim>
					<dim>30</dim>
				</port>
			</output>
		</layer>
		<layer id="112" name="data_add_310831131853103" type="Const" version="opset1">
			<data element_type="f16" offset="15720" shape="1,64,1,1" size="128"/>
			<output>
				<port id="0" precision="FP16">
					<dim>1</dim>
					<dim>64</dim>
					<dim>1</dim>
					<dim>1</dim>
				</port>
			</output>
		</layer>
		<layer id="113" name="99/variance/Fused_Add_" type="Add" version="opset1">
			<data auto_broadcast="numpy"/>
			<input>
				<port id="0">
					<dim>1</dim>
					<dim>64</dim>
					<dim>30</dim>
					<dim>30</dim>
				</port>
				<port id="1">
					<dim>1</dim>
					<dim>64</dim>
					<dim>1</dim>
					<dim>1</dim>
				</port>
			</input>
			<output>
				<port id="2" names="99" precision="FP16">
					<dim>1</dim>
					<dim>64</dim>
					<dim>30</dim>
					<dim>30</dim>
				</port>
			</output>
		</layer>
		<layer id="114" name="100/WithoutBiases/fq_input_0" type="FakeQuantize" version="opset1">
			<data auto_broadcast="numpy" levels="256"/>
			<input>
				<port id="0">
					<dim>1</dim>
					<dim>64</dim>
					<dim>30</dim>
					<dim>30</dim>
				</port>
				<port id="1"/>
				<port id="2"/>
				<port id="3"/>
				<port id="4"/>
			</input>
			<output>
				<port id="5" precision="FP16">
					<dim>1</dim>
					<dim>64</dim>
					<dim>30</dim>
					<dim>30</dim>
				</port>
			</output>
		</layer>
		<layer id="115" name="241871602/quantized19813457" type="Const" version="opset1">
			<data element_type="i8" offset="15848" shape="32,64,3,3" size="18432"/>
			<output>
				<port id="0" precision="I8">
					<dim>32</dim>
					<dim>64</dim>
					<dim>3</dim>
					<dim>3</dim>
				</port>
			</output>
		</layer>
		<layer id="116" name="241871602/quantized/to_f16" type="Convert" version="opset1">
			<data destination_type="f16"/>
			<input>
				<port id="0">
					<dim>32</dim>
					<dim>64</dim>
					<dim>3</dim>
					<dim>3</dim>
				</port>
			</input>
			<output>
				<port id="1" precision="FP16">
					<dim>32</dim>
					<dim>64</dim>
					<dim>3</dim>
					<dim>3</dim>
				</port>
			</output>
		</layer>
		<layer id="117" name="100/WithoutBiases/fq_weights_1/zero_point19943178" type="Const" version="opset1">
			<data element_type="f16" offset="34280" shape="32,1,1,1" size="64"/>
			<output>
				<port id="0" precision="FP16">
					<dim>32</dim>
					<dim>1</dim>
					<dim>1</dim>
					<dim>1</dim>
				</port>
			</output>
		</layer>
		<layer id="118" name="100/WithoutBiases/fq_weights_1/minus_zp" type="Subtract" version="opset1">
			<data auto_broadcast="numpy"/>
			<input>
				<port id="0">
					<dim>32</dim>
					<dim>64</dim>
					<dim>3</dim>
					<dim>3</dim>
				</port>
				<port id="1">
					<dim>32</dim>
					<dim>1</dim>
					<dim>1</dim>
					<dim>1</dim>
				</port>
			</input>
			<output>
				<port id="2" precision="FP16">
					<dim>32</dim>
					<dim>64</dim>
					<dim>3</dim>
					<dim>3</dim>
				</port>
			</output>
		</layer>
		<layer id="119" name="100/WithoutBiases/fq_weights_1/scale19893238" type="Const" version="opset1">
			<data element_type="f16" offset="34344" shape="32,1,1,1" size="64"/>
			<output>
				<port id="0" precision="FP16">
					<dim>32</dim>
					<dim>1</dim>
					<dim>1</dim>
					<dim>1</dim>
				</port>
			</output>
		</layer>
		<layer id="120" name="100/WithoutBiases/fq_weights_1/mulpiply_by_scale" type="Multiply" version="opset1">
			<data auto_broadcast="numpy"/>
			<input>
				<port id="0">
					<dim>32</dim>
					<dim>64</dim>
					<dim>3</dim>
					<dim>3</dim>
				</port>
				<port id="1">
					<dim>32</dim>
					<dim>1</dim>
					<dim>1</dim>
					<dim>1</dim>
				</port>
			</input>
			<output>
				<port id="2" precision="FP16">
					<dim>32</dim>
					<dim>64</dim>
					<dim>3</dim>
					<dim>3</dim>
				</port>
			</output>
		</layer>
		<layer id="121" name="100/WithoutBiases" type="Convolution" version="opset1">
			<data auto_pad="explicit" dilations="1,1" pads_begin="1,1" pads_end="1,1" strides="2,2"/>
			<input>
				<port id="0">
					<dim>1</dim>
					<dim>64</dim>
					<dim>30</dim>
					<dim>30</dim>
				</port>
				<port id="1">
					<dim>32</dim>
					<dim>64</dim>
					<dim>3</dim>
					<dim>3</dim>
				</port>
			</input>
			<output>
				<port id="2" precision="FP16">
					<dim>1</dim>
					<dim>32</dim>
					<dim>15</dim>
					<dim>15</dim>
				</port>
			</output>
		</layer>
		<layer id="122" name="100/Dims17741893283" type="Const" version="opset1">
			<data element_type="f16" offset="34408" shape="1,32,1,1" size="64"/>
			<output>
				<port id="0" precision="FP16">
					<dim>1</dim>
					<dim>32</dim>
					<dim>1</dim>
					<dim>1</dim>
				</port>
			</output>
		</layer>
		<layer id="123" name="100" type="Add" version="opset1">
			<data auto_broadcast="numpy"/>
			<input>
				<port id="0">
					<dim>1</dim>
					<dim>32</dim>
					<dim>15</dim>
					<dim>15</dim>
				</port>
				<port id="1">
					<dim>1</dim>
					<dim>32</dim>
					<dim>1</dim>
					<dim>1</dim>
				</port>
			</input>
			<output>
				<port id="2" names="100" precision="FP16">
					<dim>1</dim>
					<dim>32</dim>
					<dim>15</dim>
					<dim>15</dim>
				</port>
			</output>
		</layer>
		<layer id="124" name="110/fq_input_0" type="FakeQuantize" version="opset1">
			<data auto_broadcast="numpy" levels="256"/>
			<input>
				<port id="0">
					<dim>1</dim>
					<dim>32</dim>
					<dim>15</dim>
					<dim>15</dim>
				</port>
				<port id="1"/>
				<port id="2"/>
				<port id="3"/>
				<port id="4"/>
			</input>
			<output>
				<port id="5" precision="FP16">
					<dim>1</dim>
					<dim>32</dim>
					<dim>15</dim>
					<dim>15</dim>
				</port>
			</output>
		</layer>
		<layer id="125" name="108910933445" type="Const" version="opset1">
			<data element_type="f16" offset="34472" shape="" size="2"/>
			<output>
				<port id="0" precision="FP16"/>
			</output>
		</layer>
		<layer id="126" name="109010943277" type="Const" version="opset1">
			<data element_type="f16" offset="34474" shape="" size="2"/>
			<output>
				<port id="0" precision="FP16"/>
			</output>
		</layer>
		<layer id="127" name="109110953421" type="Const" version="opset1">
			<data element_type="f16" offset="34472" shape="" size="2"/>
			<output>
				<port id="0" precision="FP16"/>
			</output>
		</layer>
		<layer id="128" name="109210963496" type="Const" version="opset1">
			<data element_type="f16" offset="34474" shape="" size="2"/>
			<output>
				<port id="0" precision="FP16"/>
			</output>
		</layer>
		<layer id="129" name="5915953307" type="Const" version="opset1">
			<data element_type="f16" offset="34476" shape="" size="2"/>
			<output>
				<port id="0" precision="FP16"/>
			</output>
		</layer>
		<layer id="130" name="5925963490" type="Const" version="opset1">
			<data element_type="f16" offset="34478" shape="" size="2"/>
			<output>
				<port id="0" precision="FP16"/>
			</output>
		</layer>
		<layer id="131" name="5935973175" type="Const" version="opset1">
			<data element_type="f16" offset="34476" shape="" size="2"/>
			<output>
				<port id="0" precision="FP16"/>
			</output>
		</layer>
		<layer id="132" name="5945983289" type="Const" version="opset1">
			<data element_type="f16" offset="34478" shape="" size="2"/>
			<output>
				<port id="0" precision="FP16"/>
			</output>
		</layer>
		<layer id="133" name="7917953451" type="Const" version="opset1">
			<data element_type="f16" offset="34480" shape="" size="2"/>
			<output>
				<port id="0" precision="FP16"/>
			</output>
		</layer>
		<layer id="134" name="7927963022" type="Const" version="opset1">
			<data element_type="f16" offset="34482" shape="" size="2"/>
			<output>
				<port id="0" precision="FP16"/>
			</output>
		</layer>
		<layer id="135" name="7937973097" type="Const" version="opset1">
			<data element_type="f16" offset="34480" shape="" size="2"/>
			<output>
				<port id="0" precision="FP16"/>
			</output>
		</layer>
		<layer id="136" name="7947983499" type="Const" version="opset1">
			<data element_type="f16" offset="34482" shape="" size="2"/>
			<output>
				<port id="0" precision="FP16"/>
			</output>
		</layer>
		<layer id="137" name="5715752977" type="Const" version="opset1">
			<data element_type="f16" offset="34484" shape="" size="2"/>
			<output>
				<port id="0" precision="FP16"/>
			</output>
		</layer>
		<layer id="138" name="5725763088" type="Const" version="opset1">
			<data element_type="f16" offset="34486" shape="" size="2"/>
			<output>
				<port id="0" precision="FP16"/>
			</output>
		</layer>
		<layer id="139" name="5735773301" type="Const" version="opset1">
			<data element_type="f16" offset="34484" shape="" size="2"/>
			<output>
				<port id="0" precision="FP16"/>
			</output>
		</layer>
		<layer id="140" name="5745783160" type="Const" version="opset1">
			<data element_type="f16" offset="34486" shape="" size="2"/>
			<output>
				<port id="0" precision="FP16"/>
			</output>
		</layer>
		<layer id="141" name="8518553355" type="Const" version="opset1">
			<data element_type="f16" offset="34488" shape="" size="2"/>
			<output>
				<port id="0" precision="FP16"/>
			</output>
		</layer>
		<layer id="142" name="8528562983" type="Const" version="opset1">
			<data element_type="f16" offset="34490" shape="" size="2"/>
			<output>
				<port id="0" precision="FP16"/>
			</output>
		</layer>
		<layer id="143" name="8538573013" type="Const" version="opset1">
			<data element_type="f16" offset="34488" shape="" size="2"/>
			<output>
				<port id="0" precision="FP16"/>
			</output>
		</layer>
		<layer id="144" name="8548583259" type="Const" version="opset1">
			<data element_type="f16" offset="34490" shape="" size="2"/>
			<output>
				<port id="0" precision="FP16"/>
			</output>
		</layer>
		<layer id="145" name="right_eye_image" type="Parameter" version="opset1">
			<data element_type="f16" shape="1,3,60,60"/>
			<output>
				<port id="0" names="right_eye_image" precision="FP16">
					<dim>1</dim>
					<dim>3</dim>
					<dim>60</dim>
					<dim>60</dim>
				</port>
			</output>
		</layer>
		<layer id="146" name="data_mul_30711913274" type="Const" version="opset1">
			<data element_type="f16" offset="34492" shape="1,3,1,1" size="6"/>
			<output>
				<port id="0" precision="FP16">
					<dim>1</dim>
					<dim>3</dim>
					<dim>1</dim>
					<dim>1</dim>
				</port>
			</output>
		</layer>
		<layer id="147" name="101/mean/Fused_Mul_" type="Multiply" version="opset1">
			<data auto_broadcast="numpy"/>
			<input>
				<port id="0">
					<dim>1</dim>
					<dim>3</dim>
					<dim>60</dim>
					<dim>60</dim>
				</port>
				<port id="1">
					<dim>1</dim>
					<dim>3</dim>
					<dim>1</dim>
					<dim>1</dim>
				</port>
			</input>
			<output>
				<port id="2" precision="FP16">
					<dim>1</dim>
					<dim>3</dim>
					<dim>60</dim>
					<dim>60</dim>
				</port>
			</output>
		</layer>
		<layer id="148" name="data_add_30731933112" type="Const" version="opset1">
			<data element_type="f16" offset="34498" shape="1,3,1,1" size="6"/>
			<output>
				<port id="0" precision="FP16">
					<dim>1</dim>
					<dim>3</dim>
					<dim>1</dim>
					<dim>1</dim>
				</port>
			</output>
		</layer>
		<layer id="149" name="101/variance/Fused_Add_" type="Add" version="opset1">
			<data auto_broadcast="numpy"/>
			<input>
				<port id="0">
					<dim>1</dim>
					<dim>3</dim>
					<dim>60</dim>
					<dim>60</dim>
				</port>
				<port id="1">
					<dim>1</dim>
					<dim>3</dim>
					<dim>1</dim>
					<dim>1</dim>
				</port>
			</input>
			<output>
				<port id="2" names="101" precision="FP16">
					<dim>1</dim>
					<dim>3</dim>
					<dim>60</dim>
					<dim>60</dim>
				</port>
			</output>
		</layer>
		<layer id="150" name="102/WithoutBiases/fq_input_0" type="FakeQuantize" version="opset1">
			<data auto_broadcast="numpy" levels="256"/>
			<input>
				<port id="0">
					<dim>1</dim>
					<dim>3</dim>
					<dim>60</dim>
					<dim>60</dim>
				</port>
				<port id="1"/>
				<port id="2"/>
				<port id="3"/>
				<port id="4"/>
			</input>
			<output>
				<port id="5" precision="FP16">
					<dim>1</dim>
					<dim>3</dim>
					<dim>60</dim>
					<dim>60</dim>
				</port>
			</output>
		</layer>
		<layer id="151" name="311951606/quantized19573046" type="Const" version="opset1">
			<data element_type="i8" offset="34504" shape="32,3,3,3" size="864"/>
			<output>
				<port id="0" precision="I8">
					<dim>32</dim>
					<dim>3</dim>
					<dim>3</dim>
					<dim>3</dim>
				</port>
			</output>
		</layer>
		<layer id="152" name="311951606/quantized/to_f16" type="Convert" version="opset1">
			<data destination_type="f16"/>
			<input>
				<port id="0">
					<dim>32</dim>
					<dim>3</dim>
					<dim>3</dim>
					<dim>3</dim>
				</port>
			</input>
			<output>
				<port id="1" precision="FP16">
					<dim>32</dim>
					<dim>3</dim>
					<dim>3</dim>
					<dim>3</dim>
				</port>
			</output>
		</layer>
		<layer id="153" name="102/WithoutBiases/fq_weights_1/zero_point19703055" type="Const" version="opset1">
			<data element_type="f16" offset="35368" shape="32,1,1,1" size="64"/>
			<output>
				<port id="0" precision="FP16">
					<dim>32</dim>
					<dim>1</dim>
					<dim>1</dim>
					<dim>1</dim>
				</port>
			</output>
		</layer>
		<layer id="154" name="102/WithoutBiases/fq_weights_1/minus_zp" type="Subtract" version="opset1">
			<data auto_broadcast="numpy"/>
			<input>
				<port id="0">
					<dim>32</dim>
					<dim>3</dim>
					<dim>3</dim>
					<dim>3</dim>
				</port>
				<port id="1">
					<dim>32</dim>
					<dim>1</dim>
					<dim>1</dim>
					<dim>1</dim>
				</port>
			</input>
			<output>
				<port id="2" precision="FP16">
					<dim>32</dim>
					<dim>3</dim>
					<dim>3</dim>
					<dim>3</dim>
				</port>
			</output>
		</layer>
		<layer id="155" name="102/WithoutBiases/fq_weights_1/scale19653322" type="Const" version="opset1">
			<data element_type="f16" offset="35432" shape="32,1,1,1" size="64"/>
			<output>
				<port id="0" precision="FP16">
					<dim>32</dim>
					<dim>1</dim>
					<dim>1</dim>
					<dim>1</dim>
				</port>
			</output>
		</layer>
		<layer id="156" name="102/WithoutBiases/fq_weights_1/mulpiply_by_scale" type="Multiply" version="opset1">
			<data auto_broadcast="numpy"/>
			<input>
				<port id="0">
					<dim>32</dim>
					<dim>3</dim>
					<dim>3</dim>
					<dim>3</dim>
				</port>
				<port id="1">
					<dim>32</dim>
					<dim>1</dim>
					<dim>1</dim>
					<dim>1</dim>
				</port>
			</input>
			<output>
				<port id="2" precision="FP16">
					<dim>32</dim>
					<dim>3</dim>
					<dim>3</dim>
					<dim>3</dim>
				</port>
			</output>
		</layer>
		<layer id="157" name="102/WithoutBiases" type="Convolution" version="opset1">
			<data auto_pad="explicit" dilations="1,1" pads_begin="1,1" pads_end="1,1" strides="1,1"/>
			<input>
				<port id="0">
					<dim>1</dim>
					<dim>3</dim>
					<dim>60</dim>
					<dim>60</dim>
				</port>
				<port id="1">
					<dim>32</dim>
					<dim>3</dim>
					<dim>3</dim>
					<dim>3</dim>
				</port>
			</input>
			<output>
				<port id="2" precision="FP16">
					<dim>1</dim>
					<dim>32</dim>
					<dim>60</dim>
					<dim>60</dim>
				</port>
			</output>
		</layer>
		<layer id="158" name="102/Dims17381973019" type="Const" version="opset1">
			<data element_type="f16" offset="35496" shape="1,32,1,1" size="64"/>
			<output>
				<port id="0" precision="FP16">
					<dim>1</dim>
					<dim>32</dim>
					<dim>1</dim>
					<dim>1</dim>
				</port>
			</output>
		</layer>
		<layer id="159" name="102" type="Add" version="opset1">
			<data auto_broadcast="numpy"/>
			<input>
				<port id="0">
					<dim>1</dim>
					<dim>32</dim>
					<dim>60</dim>
					<dim>60</dim>
				</port>
				<port id="1">
					<dim>1</dim>
					<dim>32</dim>
					<dim>1</dim>
					<dim>1</dim>
				</port>
			</input>
			<output>
				<port id="2" names="102" precision="FP16">
					<dim>1</dim>
					<dim>32</dim>
					<dim>60</dim>
					<dim>60</dim>
				</port>
			</output>
		</layer>
		<layer id="160" name="103" type="ReLU" version="opset1">
			<input>
				<port id="0">
					<dim>1</dim>
					<dim>32</dim>
					<dim>60</dim>
					<dim>60</dim>
				</port>
			</input>
			<output>
				<port id="1" names="103" precision="FP16">
					<dim>1</dim>
					<dim>32</dim>
					<dim>60</dim>
					<dim>60</dim>
				</port>
			</output>
		</layer>
		<layer id="161" name="data_mul_307530792002962" type="Const" version="opset1">
			<data element_type="f16" offset="35560" shape="1,32,1,1" size="64"/>
			<output>
				<port id="0" precision="FP16">
					<dim>1</dim>
					<dim>32</dim>
					<dim>1</dim>
					<dim>1</dim>
				</port>
			</output>
		</layer>
		<layer id="162" name="104/mean/Fused_Mul_" type="Multiply" version="opset1">
			<data auto_broadcast="numpy"/>
			<input>
				<port id="0">
					<dim>1</dim>
					<dim>32</dim>
					<dim>60</dim>
					<dim>60</dim>
				</port>
				<port id="1">
					<dim>1</dim>
					<dim>32</dim>
					<dim>1</dim>
					<dim>1</dim>
				</port>
			</input>
			<output>
				<port id="2" precision="FP16">
					<dim>1</dim>
					<dim>32</dim>
					<dim>60</dim>
					<dim>60</dim>
				</port>
			</output>
		</layer>
		<layer id="163" name="data_add_307630812023292" type="Const" version="opset1">
			<data element_type="f16" offset="35624" shape="1,32,1,1" size="64"/>
			<output>
				<port id="0" precision="FP16">
					<dim>1</dim>
					<dim>32</dim>
					<dim>1</dim>
					<dim>1</dim>
				</port>
			</output>
		</layer>
		<layer id="164" name="104/variance/Fused_Add_" type="Add" version="opset1">
			<data auto_broadcast="numpy"/>
			<input>
				<port id="0">
					<dim>1</dim>
					<dim>32</dim>
					<dim>60</dim>
					<dim>60</dim>
				</port>
				<port id="1">
					<dim>1</dim>
					<dim>32</dim>
					<dim>1</dim>
					<dim>1</dim>
				</port>
			</input>
			<output>
				<port id="2" names="104" precision="FP16">
					<dim>1</dim>
					<dim>32</dim>
					<dim>60</dim>
					<dim>60</dim>
				</port>
			</output>
		</layer>
		<layer id="165" name="105/WithoutBiases/fq_input_0" type="FakeQuantize" version="opset1">
			<data auto_broadcast="numpy" levels="256"/>
			<input>
				<port id="0">
					<dim>1</dim>
					<dim>32</dim>
					<dim>60</dim>
					<dim>60</dim>
				</port>
				<port id="1"/>
				<port id="2"/>
				<port id="3"/>
				<port id="4"/>
			</input>
			<output>
				<port id="5" precision="FP16">
					<dim>1</dim>
					<dim>32</dim>
					<dim>60</dim>
					<dim>60</dim>
				</port>
			</output>
		</layer>
		<layer id="166" name="382041610/quantized21253478" type="Const" version="opset1">
			<data element_type="i8" offset="35688" shape="16,32,3,3" size="4608"/>
			<output>
				<port id="0" precision="I8">
					<dim>16</dim>
					<dim>32</dim>
					<dim>3</dim>
					<dim>3</dim>
				</port>
			</output>
		</layer>
		<layer id="167" name="382041610/quantized/to_f16" type="Convert" version="opset1">
			<data destination_type="f16"/>
			<input>
				<port id="0">
					<dim>16</dim>
					<dim>32</dim>
					<dim>3</dim>
					<dim>3</dim>
				</port>
			</input>
			<output>
				<port id="1" precision="FP16">
					<dim>16</dim>
					<dim>32</dim>
					<dim>3</dim>
					<dim>3</dim>
				</port>
			</output>
		</layer>
		<layer id="168" name="105/WithoutBiases/fq_weights_1/zero_point21383505" type="Const" version="opset1">
			<data element_type="f16" offset="40296" shape="16,1,1,1" size="32"/>
			<output>
				<port id="0" precision="FP16">
					<dim>16</dim>
					<dim>1</dim>
					<dim>1</dim>
					<dim>1</dim>
				</port>
			</output>
		</layer>
		<layer id="169" name="105/WithoutBiases/fq_weights_1/minus_zp" type="Subtract" version="opset1">
			<data auto_broadcast="numpy"/>
			<input>
				<port id="0">
					<dim>16</dim>
					<dim>32</dim>
					<dim>3</dim>
					<dim>3</dim>
				</port>
				<port id="1">
					<dim>16</dim>
					<dim>1</dim>
					<dim>1</dim>
					<dim>1</dim>
				</port>
			</input>
			<output>
				<port id="2" precision="FP16">
					<dim>16</dim>
					<dim>32</dim>
					<dim>3</dim>
					<dim>3</dim>
				</port>
			</output>
		</layer>
		<layer id="170" name="105/WithoutBiases/fq_weights_1/scale21333202" type="Const" version="opset1">
			<data element_type="f16" offset="40328" shape="16,1,1,1" size="32"/>
			<output>
				<port id="0" precision="FP16">
					<dim>16</dim>
					<dim>1</dim>
					<dim>1</dim>
					<dim>1</dim>
				</port>
			</output>
		</layer>
		<layer id="171" name="105/WithoutBiases/fq_weights_1/mulpiply_by_scale" type="Multiply" version="opset1">
			<data auto_broadcast="numpy"/>
			<input>
				<port id="0">
					<dim>16</dim>
					<dim>32</dim>
					<dim>3</dim>
					<dim>3</dim>
				</port>
				<port id="1">
					<dim>16</dim>
					<dim>1</dim>
					<dim>1</dim>
					<dim>1</dim>
				</port>
			</input>
			<output>
				<port id="2" precision="FP16">
					<dim>16</dim>
					<dim>32</dim>
					<dim>3</dim>
					<dim>3</dim>
				</port>
			</output>
		</layer>
		<layer id="172" name="105/WithoutBiases" type="Convolution" version="opset1">
			<data auto_pad="explicit" dilations="1,1" pads_begin="1,1" pads_end="1,1" strides="2,2"/>
			<input>
				<port id="0">
					<dim>1</dim>
					<dim>32</dim>
					<dim>60</dim>
					<dim>60</dim>
				</port>
				<port id="1">
					<dim>16</dim>
					<dim>32</dim>
					<dim>3</dim>
					<dim>3</dim>
				</port>
			</input>
			<output>
				<port id="2" precision="FP16">
					<dim>1</dim>
					<dim>16</dim>
					<dim>30</dim>
					<dim>30</dim>
				</port>
			</output>
		</layer>
		<layer id="173" name="105/Dims17082063400" type="Const" version="opset1">
			<data element_type="f16" offset="40360" shape="1,16,1,1" size="32"/>
			<output>
				<port id="0" precision="FP16">
					<dim>1</dim>
					<dim>16</dim>
					<dim>1</dim>
					<dim>1</dim>
				</port>
			</output>
		</layer>
		<layer id="174" name="105" type="Add" version="opset1">
			<data auto_broadcast="numpy"/>
			<input>
				<port id="0">
					<dim>1</dim>
					<dim>16</dim>
					<dim>30</dim>
					<dim>30</dim>
				</port>
				<port id="1">
					<dim>1</dim>
					<dim>16</dim>
					<dim>1</dim>
					<dim>1</dim>
				</port>
			</input>
			<output>
				<port id="2" names="105" precision="FP16">
					<dim>1</dim>
					<dim>16</dim>
					<dim>30</dim>
					<dim>30</dim>
				</port>
			</output>
		</layer>
		<layer id="175" name="106/WithoutBiases/fq_input_0" type="FakeQuantize" version="opset1">
			<data auto_broadcast="numpy" levels="256"/>
			<input>
				<port id="0">
					<dim>1</dim>
					<dim>16</dim>
					<dim>30</dim>
					<dim>30</dim>
				</port>
				<port id="1"/>
				<port id="2"/>
				<port id="3"/>
				<port id="4"/>
			</input>
			<output>
				<port id="5" precision="FP16">
					<dim>1</dim>
					<dim>16</dim>
					<dim>30</dim>
					<dim>30</dim>
				</port>
			</output>
		</layer>
		<layer id="176" name="402081612/quantized21732971" type="Const" version="opset1">
			<data element_type="i8" offset="40392" shape="64,16,3,3" size="9216"/>
			<output>
				<port id="0" precision="I8">
					<dim>64</dim>
					<dim>16</dim>
					<dim>3</dim>
					<dim>3</dim>
				</port>
			</output>
		</layer>
		<layer id="177" name="402081612/quantized/to_f16" type="Convert" version="opset1">
			<data destination_type="f16"/>
			<input>
				<port id="0">
					<dim>64</dim>
					<dim>16</dim>
					<dim>3</dim>
					<dim>3</dim>
				</port>
			</input>
			<output>
				<port id="1" precision="FP16">
					<dim>64</dim>
					<dim>16</dim>
					<dim>3</dim>
					<dim>3</dim>
				</port>
			</output>
		</layer>
		<layer id="178" name="106/WithoutBiases/fq_weights_1/zero_point21863409" type="Const" version="opset1">
			<data element_type="f16" offset="49608" shape="64,1,1,1" size="128"/>
			<output>
				<port id="0" precision="FP16">
					<dim>64</dim>
					<dim>1</dim>
					<dim>1</dim>
					<dim>1</dim>
				</port>
			</output>
		</layer>
		<layer id="179" name="106/WithoutBiases/fq_weights_1/minus_zp" type="Subtract" version="opset1">
			<data auto_broadcast="numpy"/>
			<input>
				<port id="0">
					<dim>64</dim>
					<dim>16</dim>
					<dim>3</dim>
					<dim>3</dim>
				</port>
				<port id="1">
					<dim>64</dim>
					<dim>1</dim>
					<dim>1</dim>
					<dim>1</dim>
				</port>
			</input>
			<output>
				<port id="2" precision="FP16">
					<dim>64</dim>
					<dim>16</dim>
					<dim>3</dim>
					<dim>3</dim>
				</port>
			</output>
		</layer>
		<layer id="180" name="106/WithoutBiases/fq_weights_1/scale21813391" type="Const" version="opset1">
			<data element_type="f16" offset="49736" shape="64,1,1,1" size="128"/>
			<output>
				<port id="0" precision="FP16">
					<dim>64</dim>
					<dim>1</dim>
					<dim>1</dim>
					<dim>1</dim>
				</port>
			</output>
		</layer>
		<layer id="181" name="106/WithoutBiases/fq_weights_1/mulpiply_by_scale" type="Multiply" version="opset1">
			<data auto_broadcast="numpy"/>
			<input>
				<port id="0">
					<dim>64</dim>
					<dim>16</dim>
					<dim>3</dim>
					<dim>3</dim>
				</port>
				<port id="1">
					<dim>64</dim>
					<dim>1</dim>
					<dim>1</dim>
					<dim>1</dim>
				</port>
			</input>
			<output>
				<port id="2" precision="FP16">
					<dim>64</dim>
					<dim>16</dim>
					<dim>3</dim>
					<dim>3</dim>
				</port>
			</output>
		</layer>
		<layer id="182" name="106/WithoutBiases" type="Convolution" version="opset1">
			<data auto_pad="explicit" dilations="1,1" pads_begin="1,1" pads_end="1,1" strides="1,1"/>
			<input>
				<port id="0">
					<dim>1</dim>
					<dim>16</dim>
					<dim>30</dim>
					<dim>30</dim>
				</port>
				<port id="1">
					<dim>64</dim>
					<dim>16</dim>
					<dim>3</dim>
					<dim>3</dim>
				</port>
			</input>
			<output>
				<port id="2" precision="FP16">
					<dim>1</dim>
					<dim>64</dim>
					<dim>30</dim>
					<dim>30</dim>
				</port>
			</output>
		</layer>
		<layer id="183" name="106/Dims17322103073" type="Const" version="opset1">
			<data element_type="f16" offset="49864" shape="1,64,1,1" size="128"/>
			<output>
				<port id="0" precision="FP16">
					<dim>1</dim>
					<dim>64</dim>
					<dim>1</dim>
					<dim>1</dim>
				</port>
			</output>
		</layer>
		<layer id="184" name="106" type="Add" version="opset1">
			<data auto_broadcast="numpy"/>
			<input>
				<port id="0">
					<dim>1</dim>
					<dim>64</dim>
					<dim>30</dim>
					<dim>30</dim>
				</port>
				<port id="1">
					<dim>1</dim>
					<dim>64</dim>
					<dim>1</dim>
					<dim>1</dim>
				</port>
			</input>
			<output>
				<port id="2" names="106" precision="FP16">
					<dim>1</dim>
					<dim>64</dim>
					<dim>30</dim>
					<dim>30</dim>
				</port>
			</output>
		</layer>
		<layer id="185" name="107" type="ReLU" version="opset1">
			<input>
				<port id="0">
					<dim>1</dim>
					<dim>64</dim>
					<dim>30</dim>
					<dim>30</dim>
				</port>
			</input>
			<output>
				<port id="1" names="107" precision="FP16">
					<dim>1</dim>
					<dim>64</dim>
					<dim>30</dim>
					<dim>30</dim>
				</port>
			</output>
		</layer>
		<layer id="186" name="data_mul_308330872133208" type="Const" version="opset1">
			<data element_type="f16" offset="49992" shape="1,64,1,1" size="128"/>
			<output>
				<port id="0" precision="FP16">
					<dim>1</dim>
					<dim>64</dim>
					<dim>1</dim>
					<dim>1</dim>
				</port>
			</output>
		</layer>
		<layer id="187" name="108/mean/Fused_Mul_" type="Multiply" version="opset1">
			<data auto_broadcast="numpy"/>
			<input>
				<port id="0">
					<dim>1</dim>
					<dim>64</dim>
					<dim>30</dim>
					<dim>30</dim>
				</port>
				<port id="1">
					<dim>1</dim>
					<dim>64</dim>
					<dim>1</dim>
					<dim>1</dim>
				</port>
			</input>
			<output>
				<port id="2" precision="FP16">
					<dim>1</dim>
					<dim>64</dim>
					<dim>30</dim>
					<dim>30</dim>
				</port>
			</output>
		</layer>
		<layer id="188" name="data_add_308430892153130" type="Const" version="opset1">
			<data element_type="f16" offset="50120" shape="1,64,1,1" size="128"/>
			<output>
				<port id="0" precision="FP16">
					<dim>1</dim>
					<dim>64</dim>
					<dim>1</dim>
					<dim>1</dim>
				</port>
			</output>
		</layer>
		<layer id="189" name="108/variance/Fused_Add_" type="Add" version="opset1">
			<data auto_broadcast="numpy"/>
			<input>
				<port id="0">
					<dim>1</dim>
					<dim>64</dim>
					<dim>30</dim>
					<dim>30</dim>
				</port>
				<port id="1">
					<dim>1</dim>
					<dim>64</dim>
					<dim>1</dim>
					<dim>1</dim>
				</port>
			</input>
			<output>
				<port id="2" names="108" precision="FP16">
					<dim>1</dim>
					<dim>64</dim>
					<dim>30</dim>
					<dim>30</dim>
				</port>
			</output>
		</layer>
		<layer id="190" name="109/WithoutBiases/fq_input_0" type="FakeQuantize" version="opset1">
			<data auto_broadcast="numpy" levels="256"/>
			<input>
				<port id="0">
					<dim>1</dim>
					<dim>64</dim>
					<dim>30</dim>
					<dim>30</dim>
				</port>
				<port id="1"/>
				<port id="2"/>
				<port id="3"/>
				<port id="4"/>
			</input>
			<output>
				<port id="5" precision="FP16">
					<dim>1</dim>
					<dim>64</dim>
					<dim>30</dim>
					<dim>30</dim>
				</port>
			</output>
		</layer>
		<layer id="191" name="472171616/quantized19093448" type="Const" version="opset1">
			<data element_type="i8" offset="50248" shape="32,64,3,3" size="18432"/>
			<output>
				<port id="0" precision="I8">
					<dim>32</dim>
					<dim>64</dim>
					<dim>3</dim>
					<dim>3</dim>
				</port>
			</output>
		</layer>
		<layer id="192" name="472171616/quantized/to_f16" type="Convert" version="opset1">
			<data destination_type="f16"/>
			<input>
				<port id="0">
					<dim>32</dim>
					<dim>64</dim>
					<dim>3</dim>
					<dim>3</dim>
				</port>
			</input>
			<output>
				<port id="1" precision="FP16">
					<dim>32</dim>
					<dim>64</dim>
					<dim>3</dim>
					<dim>3</dim>
				</port>
			</output>
		</layer>
		<layer id="193" name="109/WithoutBiases/fq_weights_1/zero_point19223028" type="Const" version="opset1">
			<data element_type="f16" offset="68680" shape="32,1,1,1" size="64"/>
			<output>
				<port id="0" precision="FP16">
					<dim>32</dim>
					<dim>1</dim>
					<dim>1</dim>
					<dim>1</dim>
				</port>
			</output>
		</layer>
		<layer id="194" name="109/WithoutBiases/fq_weights_1/minus_zp" type="Subtract" version="opset1">
			<data auto_broadcast="numpy"/>
			<input>
				<port id="0">
					<dim>32</dim>
					<dim>64</dim>
					<dim>3</dim>
					<dim>3</dim>
				</port>
				<port id="1">
					<dim>32</dim>
					<dim>1</dim>
					<dim>1</dim>
					<dim>1</dim>
				</port>
			</input>
			<output>
				<port id="2" precision="FP16">
					<dim>32</dim>
					<dim>64</dim>
					<dim>3</dim>
					<dim>3</dim>
				</port>
			</output>
		</layer>
		<layer id="195" name="109/WithoutBiases/fq_weights_1/scale19173370" type="Const" version="opset1">
			<data element_type="f16" offset="68744" shape="32,1,1,1" size="64"/>
			<output>
				<port id="0" precision="FP16">
					<dim>32</dim>
					<dim>1</dim>
					<dim>1</dim>
					<dim>1</dim>
				</port>
			</output>
		</layer>
		<layer id="196" name="109/WithoutBiases/fq_weights_1/mulpiply_by_scale" type="Multiply" version="opset1">
			<data auto_broadcast="numpy"/>
			<input>
				<port id="0">
					<dim>32</dim>
					<dim>64</dim>
					<dim>3</dim>
					<dim>3</dim>
				</port>
				<port id="1">
					<dim>32</dim>
					<dim>1</dim>
					<dim>1</dim>
					<dim>1</dim>
				</port>
			</input>
			<output>
				<port id="2" precision="FP16">
					<dim>32</dim>
					<dim>64</dim>
					<dim>3</dim>
					<dim>3</dim>
				</port>
			</output>
		</layer>
		<layer id="197" name="109/WithoutBiases" type="Convolution" version="opset1">
			<data auto_pad="explicit" dilations="1,1" pads_begin="1,1" pads_end="1,1" strides="2,2"/>
			<input>
				<port id="0">
					<dim>1</dim>
					<dim>64</dim>
					<dim>30</dim>
					<dim>30</dim>
				</port>
				<port id="1">
					<dim>32</dim>
					<dim>64</dim>
					<dim>3</dim>
					<dim>3</dim>
				</port>
			</input>
			<output>
				<port id="2" precision="FP16">
					<dim>1</dim>
					<dim>32</dim>
					<dim>15</dim>
					<dim>15</dim>
				</port>
			</output>
		</layer>
		<layer id="198" name="109/Dims16962193049" type="Const" version="opset1">
			<data element_type="f16" offset="68808" shape="1,32,1,1" size="64"/>
			<output>
				<port id="0" precision="FP16">
					<dim>1</dim>
					<dim>32</dim>
					<dim>1</dim>
					<dim>1</dim>
				</port>
			</output>
		</layer>
		<layer id="199" name="109" type="Add" version="opset1">
			<data auto_broadcast="numpy"/>
			<input>
				<port id="0">
					<dim>1</dim>
					<dim>32</dim>
					<dim>15</dim>
					<dim>15</dim>
				</port>
				<port id="1">
					<dim>1</dim>
					<dim>32</dim>
					<dim>1</dim>
					<dim>1</dim>
				</port>
			</input>
			<output>
				<port id="2" names="109" precision="FP16">
					<dim>1</dim>
					<dim>32</dim>
					<dim>15</dim>
					<dim>15</dim>
				</port>
			</output>
		</layer>
		<layer id="200" name="110/fq_input_1" type="FakeQuantize" version="opset1">
			<data auto_broadcast="numpy" levels="256"/>
			<input>
				<port id="0">
					<dim>1</dim>
					<dim>32</dim>
					<dim>15</dim>
					<dim>15</dim>
				</port>
				<port id="1"/>
				<port id="2"/>
				<port id="3"/>
				<port id="4"/>
			</input>
			<output>
				<port id="5" precision="FP16">
					<dim>1</dim>
					<dim>32</dim>
					<dim>15</dim>
					<dim>15</dim>
				</port>
			</output>
		</layer>
		<layer id="201" name="110" type="Concat" version="opset1">
			<data axis="1"/>
			<input>
				<port id="0">
					<dim>1</dim>
					<dim>32</dim>
					<dim>15</dim>
					<dim>15</dim>
				</port>
				<port id="1">
					<dim>1</dim>
					<dim>32</dim>
					<dim>15</dim>
					<dim>15</dim>
				</port>
			</input>
			<output>
				<port id="2" names="110" precision="FP16">
					<dim>1</dim>
					<dim>64</dim>
					<dim>15</dim>
					<dim>15</dim>
				</port>
			</output>
		</layer>
		<layer id="202" name="492221618/quantized19333373" type="Const" version="opset1">
			<data element_type="i8" offset="68872" shape="128,64,3,3" size="73728"/>
			<output>
				<port id="0" precision="I8">
					<dim>128</dim>
					<dim>64</dim>
					<dim>3</dim>
					<dim>3</dim>
				</port>
			</output>
		</layer>
		<layer id="203" name="492221618/quantized/to_f16" type="Convert" version="opset1">
			<data destination_type="f16"/>
			<input>
				<port id="0">
					<dim>128</dim>
					<dim>64</dim>
					<dim>3</dim>
					<dim>3</dim>
				</port>
			</input>
			<output>
				<port id="1" precision="FP16">
					<dim>128</dim>
					<dim>64</dim>
					<dim>3</dim>
					<dim>3</dim>
				</port>
			</output>
		</layer>
		<layer id="204" name="111/WithoutBiases/fq_weights_1/zero_point19463109" type="Const" version="opset1">
			<data element_type="f16" offset="142600" shape="128,1,1,1" size="256"/>
			<output>
				<port id="0" precision="FP16">
					<dim>128</dim>
					<dim>1</dim>
					<dim>1</dim>
					<dim>1</dim>
				</port>
			</output>
		</layer>
		<layer id="205" name="111/WithoutBiases/fq_weights_1/minus_zp" type="Subtract" version="opset1">
			<data auto_broadcast="numpy"/>
			<input>
				<port id="0">
					<dim>128</dim>
					<dim>64</dim>
					<dim>3</dim>
					<dim>3</dim>
				</port>
				<port id="1">
					<dim>128</dim>
					<dim>1</dim>
					<dim>1</dim>
					<dim>1</dim>
				</port>
			</input>
			<output>
				<port id="2" precision="FP16">
					<dim>128</dim>
					<dim>64</dim>
					<dim>3</dim>
					<dim>3</dim>
				</port>
			</output>
		</layer>
		<layer id="206" name="111/WithoutBiases/fq_weights_1/scale19413436" type="Const" version="opset1">
			<data element_type="f16" offset="142856" shape="128,1,1,1" size="256"/>
			<output>
				<port id="0" precision="FP16">
					<dim>128</dim>
					<dim>1</dim>
					<dim>1</dim>
					<dim>1</dim>
				</port>
			</output>
		</layer>
		<layer id="207" name="111/WithoutBiases/fq_weights_1/mulpiply_by_scale" type="Multiply" version="opset1">
			<data auto_broadcast="numpy"/>
			<input>
				<port id="0">
					<dim>128</dim>
					<dim>64</dim>
					<dim>3</dim>
					<dim>3</dim>
				</port>
				<port id="1">
					<dim>128</dim>
					<dim>1</dim>
					<dim>1</dim>
					<dim>1</dim>
				</port>
			</input>
			<output>
				<port id="2" precision="FP16">
					<dim>128</dim>
					<dim>64</dim>
					<dim>3</dim>
					<dim>3</dim>
				</port>
			</output>
		</layer>
		<layer id="208" name="111/WithoutBiases" type="Convolution" version="opset1">
			<data auto_pad="explicit" dilations="1,1" pads_begin="1,1" pads_end="1,1" strides="1,1"/>
			<input>
				<port id="0">
					<dim>1</dim>
					<dim>64</dim>
					<dim>15</dim>
					<dim>15</dim>
				</port>
				<port id="1">
					<dim>128</dim>
					<dim>64</dim>
					<dim>3</dim>
					<dim>3</dim>
				</port>
			</input>
			<output>
				<port id="2" precision="FP16">
					<dim>1</dim>
					<dim>128</dim>
					<dim>15</dim>
					<dim>15</dim>
				</port>
			</output>
		</layer>
		<layer id="209" name="111/Dims17022243268" type="Const" version="opset1">
			<data element_type="f16" offset="143112" shape="1,128,1,1" size="256"/>
			<output>
				<port id="0" precision="FP16">
					<dim>1</dim>
					<dim>128</dim>
					<dim>1</dim>
					<dim>1</dim>
				</port>
			</output>
		</layer>
		<layer id="210" name="111" type="Add" version="opset1">
			<data auto_broadcast="numpy"/>
			<input>
				<port id="0">
					<dim>1</dim>
					<dim>128</dim>
					<dim>15</dim>
					<dim>15</dim>
				</port>
				<port id="1">
					<dim>1</dim>
					<dim>128</dim>
					<dim>1</dim>
					<dim>1</dim>
				</port>
			</input>
			<output>
				<port id="2" names="111" precision="FP16">
					<dim>1</dim>
					<dim>128</dim>
					<dim>15</dim>
					<dim>15</dim>
				</port>
			</output>
		</layer>
		<layer id="211" name="112" type="ReLU" version="opset1">
			<input>
				<port id="0">
					<dim>1</dim>
					<dim>128</dim>
					<dim>15</dim>
					<dim>15</dim>
				</port>
			</input>
			<output>
				<port id="1" names="112" precision="FP16">
					<dim>1</dim>
					<dim>128</dim>
					<dim>15</dim>
					<dim>15</dim>
				</port>
			</output>
		</layer>
		<layer id="212" name="data_mul_311531192273439" type="Const" version="opset1">
			<data element_type="f16" offset="143368" shape="1,128,1,1" size="256"/>
			<output>
				<port id="0" precision="FP16">
					<dim>1</dim>
					<dim>128</dim>
					<dim>1</dim>
					<dim>1</dim>
				</port>
			</output>
		</layer>
		<layer id="213" name="113/mean/Fused_Mul_" type="Multiply" version="opset1">
			<data auto_broadcast="numpy"/>
			<input>
				<port id="0">
					<dim>1</dim>
					<dim>128</dim>
					<dim>15</dim>
					<dim>15</dim>
				</port>
				<port id="1">
					<dim>1</dim>
					<dim>128</dim>
					<dim>1</dim>
					<dim>1</dim>
				</port>
			</input>
			<output>
				<port id="2" precision="FP16">
					<dim>1</dim>
					<dim>128</dim>
					<dim>15</dim>
					<dim>15</dim>
				</port>
			</output>
		</layer>
		<layer id="214" name="data_add_311631212293244" type="Const" version="opset1">
			<data element_type="f16" offset="143624" shape="1,128,1,1" size="256"/>
			<output>
				<port id="0" precision="FP16">
					<dim>1</dim>
					<dim>128</dim>
					<dim>1</dim>
					<dim>1</dim>
				</port>
			</output>
		</layer>
		<layer id="215" name="113/variance/Fused_Add_" type="Add" version="opset1">
			<data auto_broadcast="numpy"/>
			<input>
				<port id="0">
					<dim>1</dim>
					<dim>128</dim>
					<dim>15</dim>
					<dim>15</dim>
				</port>
				<port id="1">
					<dim>1</dim>
					<dim>128</dim>
					<dim>1</dim>
					<dim>1</dim>
				</port>
			</input>
			<output>
				<port id="2" names="113" precision="FP16">
					<dim>1</dim>
					<dim>128</dim>
					<dim>15</dim>
					<dim>15</dim>
				</port>
			</output>
		</layer>
		<layer id="216" name="114/WithoutBiases/fq_input_0" type="FakeQuantize" version="opset1">
			<data auto_broadcast="numpy" levels="256"/>
			<input>
				<port id="0">
					<dim>1</dim>
					<dim>128</dim>
					<dim>15</dim>
					<dim>15</dim>
				</port>
				<port id="1"/>
				<port id="2"/>
				<port id="3"/>
				<port id="4"/>
			</input>
			<output>
				<port id="5" precision="FP16">
					<dim>1</dim>
					<dim>128</dim>
					<dim>15</dim>
					<dim>15</dim>
				</port>
			</output>
		</layer>
		<layer id="217" name="562311622/quantized18613334" type="Const" version="opset1">
			<data element_type="i8" offset="143880" shape="64,128,3,3" size="73728"/>
			<output>
				<port id="0" precision="I8">
					<dim>64</dim>
					<dim>128</dim>
					<dim>3</dim>
					<dim>3</dim>
				</port>
			</output>
		</layer>
		<layer id="218" name="562311622/quantized/to_f16" type="Convert" version="opset1">
			<data destination_type="f16"/>
			<input>
				<port id="0">
					<dim>64</dim>
					<dim>128</dim>
					<dim>3</dim>
					<dim>3</dim>
				</port>
			</input>
			<output>
				<port id="1" precision="FP16">
					<dim>64</dim>
					<dim>128</dim>
					<dim>3</dim>
					<dim>3</dim>
				</port>
			</output>
		</layer>
		<layer id="219" name="114/WithoutBiases/fq_weights_1/zero_point18743169" type="Const" version="opset1">
			<data element_type="f16" offset="217608" shape="64,1,1,1" size="128"/>
			<output>
				<port id="0" precision="FP16">
					<dim>64</dim>
					<dim>1</dim>
					<dim>1</dim>
					<dim>1</dim>
				</port>
			</output>
		</layer>
		<layer id="220" name="114/WithoutBiases/fq_weights_1/minus_zp" type="Subtract" version="opset1">
			<data auto_broadcast="numpy"/>
			<input>
				<port id="0">
					<dim>64</dim>
					<dim>128</dim>
					<dim>3</dim>
					<dim>3</dim>
				</port>
				<port id="1">
					<dim>64</dim>
					<dim>1</dim>
					<dim>1</dim>
					<dim>1</dim>
				</port>
			</input>
			<output>
				<port id="2" precision="FP16">
					<dim>64</dim>
					<dim>128</dim>
					<dim>3</dim>
					<dim>3</dim>
				</port>
			</output>
		</layer>
		<layer id="221" name="114/WithoutBiases/fq_weights_1/scale18693337" type="Const" version="opset1">
			<data element_type="f16" offset="217736" shape="64,1,1,1" size="128"/>
			<output>
				<port id="0" precision="FP16">
					<dim>64</dim>
					<dim>1</dim>
					<dim>1</dim>
					<dim>1</dim>
				</port>
			</output>
		</layer>
		<layer id="222" name="114/WithoutBiases/fq_weights_1/mulpiply_by_scale" type="Multiply" version="opset1">
			<data auto_broadcast="numpy"/>
			<input>
				<port id="0">
					<dim>64</dim>
					<dim>128</dim>
					<dim>3</dim>
					<dim>3</dim>
				</port>
				<port id="1">
					<dim>64</dim>
					<dim>1</dim>
					<dim>1</dim>
					<dim>1</dim>
				</port>
			</input>
			<output>
				<port id="2" precision="FP16">
					<dim>64</dim>
					<dim>128</dim>
					<dim>3</dim>
					<dim>3</dim>
				</port>
			</output>
		</layer>
		<layer id="223" name="114/WithoutBiases" type="Convolution" version="opset1">
			<data auto_pad="explicit" dilations="1,1" pads_begin="1,1" pads_end="1,1" strides="2,2"/>
			<input>
				<port id="0">
					<dim>1</dim>
					<dim>128</dim>
					<dim>15</dim>
					<dim>15</dim>
				</port>
				<port id="1">
					<dim>64</dim>
					<dim>128</dim>
					<dim>3</dim>
					<dim>3</dim>
				</port>
			</input>
			<output>
				<port id="2" precision="FP16">
					<dim>1</dim>
					<dim>64</dim>
					<dim>8</dim>
					<dim>8</dim>
				</port>
			</output>
		</layer>
		<layer id="224" name="114/Dims17562333205" type="Const" version="opset1">
			<data element_type="f16" offset="217864" shape="1,64,1,1" size="128"/>
			<output>
				<port id="0" precision="FP16">
					<dim>1</dim>
					<dim>64</dim>
					<dim>1</dim>
					<dim>1</dim>
				</port>
			</output>
		</layer>
		<layer id="225" name="114" type="Add" version="opset1">
			<data auto_broadcast="numpy"/>
			<input>
				<port id="0">
					<dim>1</dim>
					<dim>64</dim>
					<dim>8</dim>
					<dim>8</dim>
				</port>
				<port id="1">
					<dim>1</dim>
					<dim>64</dim>
					<dim>1</dim>
					<dim>1</dim>
				</port>
			</input>
			<output>
				<port id="2" names="114" precision="FP16">
					<dim>1</dim>
					<dim>64</dim>
					<dim>8</dim>
					<dim>8</dim>
				</port>
			</output>
		</layer>
		<layer id="226" name="115/WithoutBiases/fq_input_0" type="FakeQuantize" version="opset1">
			<data auto_broadcast="numpy" levels="256"/>
			<input>
				<port id="0">
					<dim>1</dim>
					<dim>64</dim>
					<dim>8</dim>
					<dim>8</dim>
				</port>
				<port id="1"/>
				<port id="2"/>
				<port id="3"/>
				<port id="4"/>
			</input>
			<output>
				<port id="5" precision="FP16">
					<dim>1</dim>
					<dim>64</dim>
					<dim>8</dim>
					<dim>8</dim>
				</port>
			</output>
		</layer>
		<layer id="227" name="582351624/quantized18133352" type="Const" version="opset1">
			<data element_type="i8" offset="217992" shape="128,64,3,3" size="73728"/>
			<output>
				<port id="0" precision="I8">
					<dim>128</dim>
					<dim>64</dim>
					<dim>3</dim>
					<dim>3</dim>
				</port>
			</output>
		</layer>
		<layer id="228" name="582351624/quantized/to_f16" type="Convert" version="opset1">
			<data destination_type="f16"/>
			<input>
				<port id="0">
					<dim>128</dim>
					<dim>64</dim>
					<dim>3</dim>
					<dim>3</dim>
				</port>
			</input>
			<output>
				<port id="1" precision="FP16">
					<dim>128</dim>
					<dim>64</dim>
					<dim>3</dim>
					<dim>3</dim>
				</port>
			</output>
		</layer>
		<layer id="229" name="115/WithoutBiases/fq_weights_1/zero_point18263148" type="Const" version="opset1">
			<data element_type="f16" offset="291720" shape="128,1,1,1" size="256"/>
			<output>
				<port id="0" precision="FP16">
					<dim>128</dim>
					<dim>1</dim>
					<dim>1</dim>
					<dim>1</dim>
				</port>
			</output>
		</layer>
		<layer id="230" name="115/WithoutBiases/fq_weights_1/minus_zp" type="Subtract" version="opset1">
			<data auto_broadcast="numpy"/>
			<input>
				<port id="0">
					<dim>128</dim>
					<dim>64</dim>
					<dim>3</dim>
					<dim>3</dim>
				</port>
				<port id="1">
					<dim>128</dim>
					<dim>1</dim>
					<dim>1</dim>
					<dim>1</dim>
				</port>
			</input>
			<output>
				<port id="2" precision="FP16">
					<dim>128</dim>
					<dim>64</dim>
					<dim>3</dim>
					<dim>3</dim>
				</port>
			</output>
		</layer>
		<layer id="231" name="115/WithoutBiases/fq_weights_1/scale18213325" type="Const" version="opset1">
			<data element_type="f16" offset="291976" shape="128,1,1,1" size="256"/>
			<output>
				<port id="0" precision="FP16">
					<dim>128</dim>
					<dim>1</dim>
					<dim>1</dim>
					<dim>1</dim>
				</port>
			</output>
		</layer>
		<layer id="232" name="115/WithoutBiases/fq_weights_1/mulpiply_by_scale" type="Multiply" version="opset1">
			<data auto_broadcast="numpy"/>
			<input>
				<port id="0">
					<dim>128</dim>
					<dim>64</dim>
					<dim>3</dim>
					<dim>3</dim>
				</port>
				<port id="1">
					<dim>128</dim>
					<dim>1</dim>
					<dim>1</dim>
					<dim>1</dim>
				</port>
			</input>
			<output>
				<port id="2" precision="FP16">
					<dim>128</dim>
					<dim>64</dim>
					<dim>3</dim>
					<dim>3</dim>
				</port>
			</output>
		</layer>
		<layer id="233" name="115/WithoutBiases" type="Convolution" version="opset1">
			<data auto_pad="explicit" dilations="1,1" pads_begin="1,1" pads_end="1,1" strides="1,1"/>
			<input>
				<port id="0">
					<dim>1</dim>
					<dim>64</dim>
					<dim>8</dim>
					<dim>8</dim>
				</port>
				<port id="1">
					<dim>128</dim>
					<dim>64</dim>
					<dim>3</dim>
					<dim>3</dim>
				</port>
			</input>
			<output>
				<port id="2" precision="FP16">
					<dim>1</dim>
					<dim>128</dim>
					<dim>8</dim>
					<dim>8</dim>
				</port>
			</output>
		</layer>
		<layer id="234" name="115/Dims17622373094" type="Const" version="opset1">
			<data element_type="f16" offset="292232" shape="1,128,1,1" size="256"/>
			<output>
				<port id="0" precision="FP16">
					<dim>1</dim>
					<dim>128</dim>
					<dim>1</dim>
					<dim>1</dim>
				</port>
			</output>
		</layer>
		<layer id="235" name="115" type="Add" version="opset1">
			<data auto_broadcast="numpy"/>
			<input>
				<port id="0">
					<dim>1</dim>
					<dim>128</dim>
					<dim>8</dim>
					<dim>8</dim>
				</port>
				<port id="1">
					<dim>1</dim>
					<dim>128</dim>
					<dim>1</dim>
					<dim>1</dim>
				</port>
			</input>
			<output>
				<port id="2" names="115" precision="FP16">
					<dim>1</dim>
					<dim>128</dim>
					<dim>8</dim>
					<dim>8</dim>
				</port>
			</output>
		</layer>
		<layer id="236" name="116" type="ReLU" version="opset1">
			<input>
				<port id="0">
					<dim>1</dim>
					<dim>128</dim>
					<dim>8</dim>
					<dim>8</dim>
				</port>
			</input>
			<output>
				<port id="1" names="116" precision="FP16">
					<dim>1</dim>
					<dim>128</dim>
					<dim>8</dim>
					<dim>8</dim>
				</port>
			</output>
		</layer>
		<layer id="237" name="data_mul_312331272403085" type="Const" version="opset1">
			<data element_type="f16" offset="292488" shape="1,128,1,1" size="256"/>
			<output>
				<port id="0" precision="FP16">
					<dim>1</dim>
					<dim>128</dim>
					<dim>1</dim>
					<dim>1</dim>
				</port>
			</output>
		</layer>
		<layer id="238" name="117/mean/Fused_Mul_" type="Multiply" version="opset1">
			<data auto_broadcast="numpy"/>
			<input>
				<port id="0">
					<dim>1</dim>
					<dim>128</dim>
					<dim>8</dim>
					<dim>8</dim>
				</port>
				<port id="1">
					<dim>1</dim>
					<dim>128</dim>
					<dim>1</dim>
					<dim>1</dim>
				</port>
			</input>
			<output>
				<port id="2" precision="FP16">
					<dim>1</dim>
					<dim>128</dim>
					<dim>8</dim>
					<dim>8</dim>
				</port>
			</output>
		</layer>
		<layer id="239" name="data_add_312431292423418" type="Const" version="opset1">
			<data element_type="f16" offset="292744" shape="1,128,1,1" size="256"/>
			<output>
				<port id="0" precision="FP16">
					<dim>1</dim>
					<dim>128</dim>
					<dim>1</dim>
					<dim>1</dim>
				</port>
			</output>
		</layer>
		<layer id="240" name="117/variance/Fused_Add_" type="Add" version="opset1">
			<data auto_broadcast="numpy"/>
			<input>
				<port id="0">
					<dim>1</dim>
					<dim>128</dim>
					<dim>8</dim>
					<dim>8</dim>
				</port>
				<port id="1">
					<dim>1</dim>
					<dim>128</dim>
					<dim>1</dim>
					<dim>1</dim>
				</port>
			</input>
			<output>
				<port id="2" names="117" precision="FP16">
					<dim>1</dim>
					<dim>128</dim>
					<dim>8</dim>
					<dim>8</dim>
				</port>
			</output>
		</layer>
		<layer id="241" name="118/WithoutBiases/fq_input_0" type="FakeQuantize" version="opset1">
			<data auto_broadcast="numpy" levels="256"/>
			<input>
				<port id="0">
					<dim>1</dim>
					<dim>128</dim>
					<dim>8</dim>
					<dim>8</dim>
				</port>
				<port id="1"/>
				<port id="2"/>
				<port id="3"/>
				<port id="4"/>
			</input>
			<output>
				<port id="5" precision="FP16">
					<dim>1</dim>
					<dim>128</dim>
					<dim>8</dim>
					<dim>8</dim>
				</port>
			</output>
		</layer>
		<layer id="242" name="652441628/quantized21973007" type="Const" version="opset1">
			<data element_type="i8" offset="293000" shape="64,128,3,3" size="73728"/>
			<output>
				<port id="0" precision="I8">
					<dim>64</dim>
					<dim>128</dim>
					<dim>3</dim>
					<dim>3</dim>
				</port>
			</output>
		</layer>
		<layer id="243" name="652441628/quantized/to_f16" type="Convert" version="opset1">
			<data destination_type="f16"/>
			<input>
				<port id="0">
					<dim>64</dim>
					<dim>128</dim>
					<dim>3</dim>
					<dim>3</dim>
				</port>
			</input>
			<output>
				<port id="1" precision="FP16">
					<dim>64</dim>
					<dim>128</dim>
					<dim>3</dim>
					<dim>3</dim>
				</port>
			</output>
		</layer>
		<layer id="244" name="118/WithoutBiases/fq_weights_1/zero_point22103328" type="Const" version="opset1">
			<data element_type="f16" offset="366728" shape="64,1,1,1" size="128"/>
			<output>
				<port id="0" precision="FP16">
					<dim>64</dim>
					<dim>1</dim>
					<dim>1</dim>
					<dim>1</dim>
				</port>
			</output>
		</layer>
		<layer id="245" name="118/WithoutBiases/fq_weights_1/minus_zp" type="Subtract" version="opset1">
			<data auto_broadcast="numpy"/>
			<input>
				<port id="0">
					<dim>64</dim>
					<dim>128</dim>
					<dim>3</dim>
					<dim>3</dim>
				</port>
				<port id="1">
					<dim>64</dim>
					<dim>1</dim>
					<dim>1</dim>
					<dim>1</dim>
				</port>
			</input>
			<output>
				<port id="2" precision="FP16">
					<dim>64</dim>
					<dim>128</dim>
					<dim>3</dim>
					<dim>3</dim>
				</port>
			</output>
		</layer>
		<layer id="246" name="118/WithoutBiases/fq_weights_1/scale22053115" type="Const" version="opset1">
			<data element_type="f16" offset="366856" shape="64,1,1,1" size="128"/>
			<output>
				<port id="0" precision="FP16">
					<dim>64</dim>
					<dim>1</dim>
					<dim>1</dim>
					<dim>1</dim>
				</port>
			</output>
		</layer>
		<layer id="247" name="118/WithoutBiases/fq_weights_1/mulpiply_by_scale" type="Multiply" version="opset1">
			<data auto_broadcast="numpy"/>
			<input>
				<port id="0">
					<dim>64</dim>
					<dim>128</dim>
					<dim>3</dim>
					<dim>3</dim>
				</port>
				<port id="1">
					<dim>64</dim>
					<dim>1</dim>
					<dim>1</dim>
					<dim>1</dim>
				</port>
			</input>
			<output>
				<port id="2" precision="FP16">
					<dim>64</dim>
					<dim>128</dim>
					<dim>3</dim>
					<dim>3</dim>
				</port>
			</output>
		</layer>
		<layer id="248" name="118/WithoutBiases" type="Convolution" version="opset1">
			<data auto_pad="explicit" dilations="1,1" pads_begin="0,0" pads_end="0,0" strides="2,2"/>
			<input>
				<port id="0">
					<dim>1</dim>
					<dim>128</dim>
					<dim>8</dim>
					<dim>8</dim>
				</port>
				<port id="1">
					<dim>64</dim>
					<dim>128</dim>
					<dim>3</dim>
					<dim>3</dim>
				</port>
			</input>
			<output>
				<port id="2" precision="FP16">
					<dim>1</dim>
					<dim>64</dim>
					<dim>3</dim>
					<dim>3</dim>
				</port>
			</output>
		</layer>
		<layer id="249" name="118/Dims17262463403" type="Const" version="opset1">
			<data element_type="f16" offset="366984" shape="1,64,1,1" size="128"/>
			<output>
				<port id="0" precision="FP16">
					<dim>1</dim>
					<dim>64</dim>
					<dim>1</dim>
					<dim>1</dim>
				</port>
			</output>
		</layer>
		<layer id="250" name="118" type="Add" version="opset1">
			<data auto_broadcast="numpy"/>
			<input>
				<port id="0">
					<dim>1</dim>
					<dim>64</dim>
					<dim>3</dim>
					<dim>3</dim>
				</port>
				<port id="1">
					<dim>1</dim>
					<dim>64</dim>
					<dim>1</dim>
					<dim>1</dim>
				</port>
			</input>
			<output>
				<port id="2" names="118" precision="FP16">
					<dim>1</dim>
					<dim>64</dim>
					<dim>3</dim>
					<dim>3</dim>
				</port>
			</output>
		</layer>
		<layer id="251" name="119/WithoutBiases/fq_input_0" type="FakeQuantize" version="opset1">
			<data auto_broadcast="numpy" levels="256"/>
			<input>
				<port id="0">
					<dim>1</dim>
					<dim>64</dim>
					<dim>3</dim>
					<dim>3</dim>
				</port>
				<port id="1"/>
				<port id="2"/>
				<port id="3"/>
				<port id="4"/>
			</input>
			<output>
				<port id="5" precision="FP16">
					<dim>1</dim>
					<dim>64</dim>
					<dim>3</dim>
					<dim>3</dim>
				</port>
			</output>
		</layer>
		<layer id="252" name="672481630/quantized21493229" type="Const" version="opset1">
			<data element_type="i8" offset="367112" shape="256,64,3,3" size="147456"/>
			<output>
				<port id="0" precision="I8">
					<dim>256</dim>
					<dim>64</dim>
					<dim>3</dim>
					<dim>3</dim>
				</port>
			</output>
		</layer>
		<layer id="253" name="672481630/quantized/to_f16" type="Convert" version="opset1">
			<data destination_type="f16"/>
			<input>
				<port id="0">
					<dim>256</dim>
					<dim>64</dim>
					<dim>3</dim>
					<dim>3</dim>
				</port>
			</input>
			<output>
				<port id="1" precision="FP16">
					<dim>256</dim>
					<dim>64</dim>
					<dim>3</dim>
					<dim>3</dim>
				</port>
			</output>
		</layer>
		<layer id="254" name="119/WithoutBiases/fq_weights_1/zero_point21623217" type="Const" version="opset1">
			<data element_type="f16" offset="514568" shape="256,1,1,1" size="512"/>
			<output>
				<port id="0" precision="FP16">
					<dim>256</dim>
					<dim>1</dim>
					<dim>1</dim>
					<dim>1</dim>
				</port>
			</output>
		</layer>
		<layer id="255" name="119/WithoutBiases/fq_weights_1/minus_zp" type="Subtract" version="opset1">
			<data auto_broadcast="numpy"/>
			<input>
				<port id="0">
					<dim>256</dim>
					<dim>64</dim>
					<dim>3</dim>
					<dim>3</dim>
				</port>
				<port id="1">
					<dim>256</dim>
					<dim>1</dim>
					<dim>1</dim>
					<dim>1</dim>
				</port>
			</input>
			<output>
				<port id="2" precision="FP16">
					<dim>256</dim>
					<dim>64</dim>
					<dim>3</dim>
					<dim>3</dim>
				</port>
			</output>
		</layer>
		<layer id="256" name="119/WithoutBiases/fq_weights_1/scale21573412" type="Const" version="opset1">
			<data element_type="f16" offset="515080" shape="256,1,1,1" size="512"/>
			<output>
				<port id="0" precision="FP16">
					<dim>256</dim>
					<dim>1</dim>
					<dim>1</dim>
					<dim>1</dim>
				</port>
			</output>
		</layer>
		<layer id="257" name="119/WithoutBiases/fq_weights_1/mulpiply_by_scale" type="Multiply" version="opset1">
			<data auto_broadcast="numpy"/>
			<input>
				<port id="0">
					<dim>256</dim>
					<dim>64</dim>
					<dim>3</dim>
					<dim>3</dim>
				</port>
				<port id="1">
					<dim>256</dim>
					<dim>1</dim>
					<dim>1</dim>
					<dim>1</dim>
				</port>
			</input>
			<output>
				<port id="2" precision="FP16">
					<dim>256</dim>
					<dim>64</dim>
					<dim>3</dim>
					<dim>3</dim>
				</port>
			</output>
		</layer>
		<layer id="258" name="119/WithoutBiases" type="Convolution" version="opset1">
			<data auto_pad="explicit" dilations="1,1" pads_begin="1,1" pads_end="1,1" strides="1,1"/>
			<input>
				<port id="0">
					<dim>1</dim>
					<dim>64</dim>
					<dim>3</dim>
					<dim>3</dim>
				</port>
				<port id="1">
					<dim>256</dim>
					<dim>64</dim>
					<dim>3</dim>
					<dim>3</dim>
				</port>
			</input>
			<output>
				<port id="2" precision="FP16">
					<dim>1</dim>
					<dim>256</dim>
					<dim>3</dim>
					<dim>3</dim>
				</port>
			</output>
		</layer>
		<layer id="259" name="119/Dims16902503472" type="Const" version="opset1">
			<data element_type="f16" offset="515592" shape="1,256,1,1" size="512"/>
			<output>
				<port id="0" precision="FP16">
					<dim>1</dim>
					<dim>256</dim>
					<dim>1</dim>
					<dim>1</dim>
				</port>
			</output>
		</layer>
		<layer id="260" name="119" type="Add" version="opset1">
			<data auto_broadcast="numpy"/>
			<input>
				<port id="0">
					<dim>1</dim>
					<dim>256</dim>
					<dim>3</dim>
					<dim>3</dim>
				</port>
				<port id="1">
					<dim>1</dim>
					<dim>256</dim>
					<dim>1</dim>
					<dim>1</dim>
				</port>
			</input>
			<output>
				<port id="2" names="119" precision="FP16">
					<dim>1</dim>
					<dim>256</dim>
					<dim>3</dim>
					<dim>3</dim>
				</port>
			</output>
		</layer>
		<layer id="261" name="120" type="ReLU" version="opset1">
			<input>
				<port id="0">
					<dim>1</dim>
					<dim>256</dim>
					<dim>3</dim>
					<dim>3</dim>
				</port>
			</input>
			<output>
				<port id="1" names="120" precision="FP16">
					<dim>1</dim>
					<dim>256</dim>
					<dim>3</dim>
					<dim>3</dim>
				</port>
			</output>
		</layer>
		<layer id="262" name="data_mul_313131352533406" type="Const" version="opset1">
			<data element_type="f16" offset="516104" shape="1,256,1,1" size="512"/>
			<output>
				<port id="0" precision="FP16">
					<dim>1</dim>
					<dim>256</dim>
					<dim>1</dim>
					<dim>1</dim>
				</port>
			</output>
		</layer>
		<layer id="263" name="121/mean/Fused_Mul_" type="Multiply" version="opset1">
			<data auto_broadcast="numpy"/>
			<input>
				<port id="0">
					<dim>1</dim>
					<dim>256</dim>
					<dim>3</dim>
					<dim>3</dim>
				</port>
				<port id="1">
					<dim>1</dim>
					<dim>256</dim>
					<dim>1</dim>
					<dim>1</dim>
				</port>
			</input>
			<output>
				<port id="2" precision="FP16">
					<dim>1</dim>
					<dim>256</dim>
					<dim>3</dim>
					<dim>3</dim>
				</port>
			</output>
		</layer>
		<layer id="264" name="data_add_313231372553154" type="Const" version="opset1">
			<data element_type="f16" offset="516616" shape="1,256,1,1" size="512"/>
			<output>
				<port id="0" precision="FP16">
					<dim>1</dim>
					<dim>256</dim>
					<dim>1</dim>
					<dim>1</dim>
				</port>
			</output>
		</layer>
		<layer id="265" name="121/variance/Fused_Add_" type="Add" version="opset1">
			<data auto_broadcast="numpy"/>
			<input>
				<port id="0">
					<dim>1</dim>
					<dim>256</dim>
					<dim>3</dim>
					<dim>3</dim>
				</port>
				<port id="1">
					<dim>1</dim>
					<dim>256</dim>
					<dim>1</dim>
					<dim>1</dim>
				</port>
			</input>
			<output>
				<port id="2" names="121" precision="FP16">
					<dim>1</dim>
					<dim>256</dim>
					<dim>3</dim>
					<dim>3</dim>
				</port>
			</output>
		</layer>
		<layer id="266" name="122/WithoutBiases/fq_input_0" type="FakeQuantize" version="opset1">
			<data auto_broadcast="numpy" levels="256"/>
			<input>
				<port id="0">
					<dim>1</dim>
					<dim>256</dim>
					<dim>3</dim>
					<dim>3</dim>
				</port>
				<port id="1"/>
				<port id="2"/>
				<port id="3"/>
				<port id="4"/>
			</input>
			<output>
				<port id="5" precision="FP16">
					<dim>1</dim>
					<dim>256</dim>
					<dim>3</dim>
					<dim>3</dim>
				</port>
			</output>
		</layer>
		<layer id="267" name="742571634/quantized18373025" type="Const" version="opset1">
			<data element_type="i8" offset="517128" shape="512,256,3,3" size="1179648"/>
			<output>
				<port id="0" precision="I8">
					<dim>512</dim>
					<dim>256</dim>
					<dim>3</dim>
					<dim>3</dim>
				</port>
			</output>
		</layer>
		<layer id="268" name="742571634/quantized/to_f16" type="Convert" version="opset1">
			<data destination_type="f16"/>
			<input>
				<port id="0">
					<dim>512</dim>
					<dim>256</dim>
					<dim>3</dim>
					<dim>3</dim>
				</port>
			</input>
			<output>
				<port id="1" precision="FP16">
					<dim>512</dim>
					<dim>256</dim>
					<dim>3</dim>
					<dim>3</dim>
				</port>
			</output>
		</layer>
		<layer id="269" name="122/WithoutBiases/fq_weights_1/zero_point18503142" type="Const" version="opset1">
			<data element_type="f16" offset="1696776" shape="512,1,1,1" size="1024"/>
			<output>
				<port id="0" precision="FP16">
					<dim>512</dim>
					<dim>1</dim>
					<dim>1</dim>
					<dim>1</dim>
				</port>
			</output>
		</layer>
		<layer id="270" name="122/WithoutBiases/fq_weights_1/minus_zp" type="Subtract" version="opset1">
			<data auto_broadcast="numpy"/>
			<input>
				<port id="0">
					<dim>512</dim>
					<dim>256</dim>
					<dim>3</dim>
					<dim>3</dim>
				</port>
				<port id="1">
					<dim>512</dim>
					<dim>1</dim>
					<dim>1</dim>
					<dim>1</dim>
				</port>
			</input>
			<output>
				<port id="2" precision="FP16">
					<dim>512</dim>
					<dim>256</dim>
					<dim>3</dim>
					<dim>3</dim>
				</port>
			</output>
		</layer>
		<layer id="271" name="122/WithoutBiases/fq_weights_1/scale18452974" type="Const" version="opset1">
			<data element_type="f16" offset="1697800" shape="512,1,1,1" size="1024"/>
			<output>
				<port id="0" precision="FP16">
					<dim>512</dim>
					<dim>1</dim>
					<dim>1</dim>
					<dim>1</dim>
				</port>
			</output>
		</layer>
		<layer id="272" name="122/WithoutBiases/fq_weights_1/mulpiply_by_scale" type="Multiply" version="opset1">
			<data auto_broadcast="numpy"/>
			<input>
				<port id="0">
					<dim>512</dim>
					<dim>256</dim>
					<dim>3</dim>
					<dim>3</dim>
				</port>
				<port id="1">
					<dim>512</dim>
					<dim>1</dim>
					<dim>1</dim>
					<dim>1</dim>
				</port>
			</input>
			<output>
				<port id="2" precision="FP16">
					<dim>512</dim>
					<dim>256</dim>
					<dim>3</dim>
					<dim>3</dim>
				</port>
			</output>
		</layer>
		<layer id="273" name="122/WithoutBiases" type="Convolution" version="opset1">
			<data auto_pad="explicit" dilations="1,1" pads_begin="0,0" pads_end="0,0" strides="1,1"/>
			<input>
				<port id="0">
					<dim>1</dim>
					<dim>256</dim>
					<dim>3</dim>
					<dim>3</dim>
				</port>
				<port id="1">
					<dim>512</dim>
					<dim>256</dim>
					<dim>3</dim>
					<dim>3</dim>
				</port>
			</input>
			<output>
				<port id="2" precision="FP16">
					<dim>1</dim>
					<dim>512</dim>
					<dim>1</dim>
					<dim>1</dim>
				</port>
			</output>
		</layer>
		<layer id="274" name="122/Dims17202593343" type="Const" version="opset1">
			<data element_type="f16" offset="1698824" shape="1,512,1,1" size="1024"/>
			<output>
				<port id="0" precision="FP16">
					<dim>1</dim>
					<dim>512</dim>
					<dim>1</dim>
					<dim>1</dim>
				</port>
			</output>
		</layer>
		<layer id="275" name="122" type="Add" version="opset1">
			<data auto_broadcast="numpy"/>
			<input>
				<port id="0">
					<dim>1</dim>
					<dim>512</dim>
					<dim>1</dim>
					<dim>1</dim>
				</port>
				<port id="1">
					<dim>1</dim>
					<dim>512</dim>
					<dim>1</dim>
					<dim>1</dim>
				</port>
			</input>
			<output>
				<port id="2" names="122" precision="FP16">
					<dim>1</dim>
					<dim>512</dim>
					<dim>1</dim>
					<dim>1</dim>
				</port>
			</output>
		</layer>
		<layer id="276" name="130/fq_input_0" type="FakeQuantize" version="opset1">
			<data auto_broadcast="numpy" levels="256"/>
			<input>
				<port id="0">
					<dim>1</dim>
					<dim>512</dim>
					<dim>1</dim>
					<dim>1</dim>
				</port>
				<port id="1"/>
				<port id="2"/>
				<port id="3"/>
				<port id="4"/>
			</input>
			<output>
				<port id="5" precision="FP16">
					<dim>1</dim>
					<dim>512</dim>
					<dim>1</dim>
					<dim>1</dim>
				</port>
			</output>
		</layer>
		<layer id="277" name="124" type="ShapeOf" version="opset3">
			<data output_type="i64"/>
			<input>
				<port id="0">
					<dim>1</dim>
					<dim>512</dim>
					<dim>1</dim>
					<dim>1</dim>
				</port>
			</input>
			<output>
				<port id="1" names="124" precision="I64">
					<dim>4</dim>
				</port>
			</output>
		</layer>
		<layer id="278" name="123262" type="Const" version="opset1">
			<data element_type="i32" offset="28" shape="" size="4"/>
			<output>
				<port id="0" names="123" precision="I32"/>
			</output>
		</layer>
		<layer id="279" name="125/axis263" type="Const" version="opset1">
			<data element_type="i64" offset="32" shape="" size="8"/>
			<output>
				<port id="0" precision="I64"/>
			</output>
		</layer>
		<layer id="280" name="125181" type="Gather" version="opset7">
			<data batch_dims="0"/>
			<input>
				<port id="0">
					<dim>4</dim>
				</port>
				<port id="1"/>
				<port id="2"/>
			</input>
			<output>
				<port id="3" names="125" precision="I64"/>
			</output>
		</layer>
		<layer id="281" name="127/Dims2653034" type="Const" version="opset1">
			<data element_type="i64" offset="32" shape="1" size="8"/>
			<output>
				<port id="0" precision="I64">
					<dim>1</dim>
				</port>
			</output>
		</layer>
		<layer id="282" name="127/Unsqueeze" type="Unsqueeze" version="opset1">
			<input>
				<port id="0"/>
				<port id="1">
					<dim>1</dim>
				</port>
			</input>
			<output>
				<port id="2" names="127" precision="I64">
					<dim>1</dim>
				</port>
			</output>
		</layer>
		<layer id="283" name="128/Unsqueeze2673064" type="Const" version="opset1">
			<data element_type="i64" offset="40" shape="1" size="8"/>
			<output>
				<port id="0" names="128" precision="I64">
					<dim>1</dim>
				</port>
			</output>
		</layer>
		<layer id="284" name="129" type="Concat" version="opset1">
			<data axis="0"/>
			<input>
				<port id="0">
					<dim>1</dim>
				</port>
				<port id="1">
					<dim>1</dim>
				</port>
			</input>
			<output>
				<port id="2" names="129" precision="I64">
					<dim>2</dim>
				</port>
			</output>
		</layer>
		<layer id="285" name="130" type="Reshape" version="opset1">
			<data special_zero="true"/>
			<input>
				<port id="0">
					<dim>1</dim>
					<dim>512</dim>
					<dim>1</dim>
					<dim>1</dim>
				</port>
				<port id="1">
					<dim>2</dim>
				</port>
			</input>
			<output>
				<port id="2" names="130" precision="FP16">
					<dim>1</dim>
					<dim>512</dim>
				</port>
			</output>
		</layer>
		<layer id="286" name="139" type="Concat" version="opset1">
			<data axis="1"/>
			<input>
				<port id="0">
					<dim>1</dim>
					<dim>512</dim>
				</port>
				<port id="1">
					<dim>1</dim>
					<dim>3</dim>
				</port>
			</input>
			<output>
				<port id="2" names="139" precision="FP16">
					<dim>1</dim>
					<dim>515</dim>
				</port>
			</output>
		</layer>
		<layer id="287" name="140/Unsqueeze" type="Unsqueeze" version="opset1">
			<input>
				<port id="0">
					<dim>1</dim>
					<dim>515</dim>
				</port>
				<port id="1">
					<dim>1</dim>
				</port>
			</input>
			<output>
				<port id="2" names="140" precision="FP16">
					<dim>1</dim>
					<dim>515</dim>
					<dim>1</dim>
				</port>
			</output>
		</layer>
		<layer id="288" name="141/Unsqueeze" type="Unsqueeze" version="opset1">
			<input>
				<port id="0">
					<dim>1</dim>
					<dim>515</dim>
					<dim>1</dim>
				</port>
				<port id="1">
					<dim>1</dim>
				</port>
			</input>
			<output>
				<port id="2" names="141" precision="FP16">
					<dim>1</dim>
					<dim>515</dim>
					<dim>1</dim>
					<dim>1</dim>
				</port>
			</output>
		</layer>
		<layer id="289" name="143/mean/Fused_Mul__copy2841646/quantized20533010" type="Const" version="opset1">
			<data element_type="i8" offset="1699848" shape="320,515,1,1" size="164800"/>
			<output>
				<port id="0" precision="I8">
					<dim>320</dim>
					<dim>515</dim>
					<dim>1</dim>
					<dim>1</dim>
				</port>
			</output>
		</layer>
		<layer id="290" name="143/mean/Fused_Mul__copy2841646/quantized/to_f16" type="Convert" version="opset1">
			<data destination_type="f16"/>
			<input>
				<port id="0">
					<dim>320</dim>
					<dim>515</dim>
					<dim>1</dim>
					<dim>1</dim>
				</port>
			</input>
			<output>
				<port id="1" precision="FP16">
					<dim>320</dim>
					<dim>515</dim>
					<dim>1</dim>
					<dim>1</dim>
				</port>
			</output>
		</layer>
		<layer id="291" name="142/WithoutBiases/fq_weights_1/zero_point20662980" type="Const" version="opset1">
			<data element_type="f16" offset="1864648" shape="320,1,1,1" size="640"/>
			<output>
				<port id="0" precision="FP16">
					<dim>320</dim>
					<dim>1</dim>
					<dim>1</dim>
					<dim>1</dim>
				</port>
			</output>
		</layer>
		<layer id="292" name="142/WithoutBiases/fq_weights_1/minus_zp" type="Subtract" version="opset1">
			<data auto_broadcast="numpy"/>
			<input>
				<port id="0">
					<dim>320</dim>
					<dim>515</dim>
					<dim>1</dim>
					<dim>1</dim>
				</port>
				<port id="1">
					<dim>320</dim>
					<dim>1</dim>
					<dim>1</dim>
					<dim>1</dim>
				</port>
			</input>
			<output>
				<port id="2" precision="FP16">
					<dim>320</dim>
					<dim>515</dim>
					<dim>1</dim>
					<dim>1</dim>
				</port>
			</output>
		</layer>
		<layer id="293" name="142/WithoutBiases/fq_weights_1/scale20613430" type="Const" version="opset1">
			<data element_type="f16" offset="1865288" shape="320,1,1,1" size="640"/>
			<output>
				<port id="0" precision="FP16">
					<dim>320</dim>
					<dim>1</dim>
					<dim>1</dim>
					<dim>1</dim>
				</port>
			</output>
		</layer>
		<layer id="294" name="142/WithoutBiases/fq_weights_1/mulpiply_by_scale" type="Multiply" version="opset1">
			<data auto_broadcast="numpy"/>
			<input>
				<port id="0">
					<dim>320</dim>
					<dim>515</dim>
					<dim>1</dim>
					<dim>1</dim>
				</port>
				<port id="1">
					<dim>320</dim>
					<dim>1</dim>
					<dim>1</dim>
					<dim>1</dim>
				</port>
			</input>
			<output>
				<port id="2" precision="FP16">
					<dim>320</dim>
					<dim>515</dim>
					<dim>1</dim>
					<dim>1</dim>
				</port>
			</output>
		</layer>
		<layer id="295" name="142/WithoutBiases" type="Convolution" version="opset1">
			<data auto_pad="explicit" dilations="1,1" pads_begin="0,0" pads_end="0,0" strides="1,1"/>
			<input>
				<port id="0">
					<dim>1</dim>
					<dim>515</dim>
					<dim>1</dim>
					<dim>1</dim>
				</port>
				<port id="1">
					<dim>320</dim>
					<dim>515</dim>
					<dim>1</dim>
					<dim>1</dim>
				</port>
			</input>
			<output>
				<port id="2" precision="FP16">
					<dim>1</dim>
					<dim>320</dim>
					<dim>1</dim>
					<dim>1</dim>
				</port>
			</output>
		</layer>
		<layer id="296" name="data_add_314031452863250" type="Const" version="opset1">
			<data element_type="f16" offset="1865928" shape="1,320,1,1" size="640"/>
			<output>
				<port id="0" precision="FP16">
					<dim>1</dim>
					<dim>320</dim>
					<dim>1</dim>
					<dim>1</dim>
				</port>
			</output>
		</layer>
		<layer id="297" name="142/Fused_Add_" type="Add" version="opset1">
			<data auto_broadcast="numpy"/>
			<input>
				<port id="0">
					<dim>1</dim>
					<dim>320</dim>
					<dim>1</dim>
					<dim>1</dim>
				</port>
				<port id="1">
					<dim>1</dim>
					<dim>320</dim>
					<dim>1</dim>
					<dim>1</dim>
				</port>
			</input>
			<output>
				<port id="2" names="143" precision="FP16">
					<dim>1</dim>
					<dim>320</dim>
					<dim>1</dim>
					<dim>1</dim>
				</port>
			</output>
		</layer>
		<layer id="298" name="144" type="ReLU" version="opset1">
			<input>
				<port id="0">
					<dim>1</dim>
					<dim>320</dim>
					<dim>1</dim>
					<dim>1</dim>
				</port>
			</input>
			<output>
				<port id="1" names="144" precision="FP16">
					<dim>1</dim>
					<dim>320</dim>
					<dim>1</dim>
					<dim>1</dim>
				</port>
			</output>
		</layer>
		<layer id="299" name="145/WithoutBiases/fq_input_0" type="FakeQuantize" version="opset1">
			<data auto_broadcast="numpy" levels="256"/>
			<input>
				<port id="0">
					<dim>1</dim>
					<dim>320</dim>
					<dim>1</dim>
					<dim>1</dim>
				</port>
				<port id="1"/>
				<port id="2"/>
				<port id="3"/>
				<port id="4"/>
			</input>
			<output>
				<port id="5" precision="FP16">
					<dim>1</dim>
					<dim>320</dim>
					<dim>1</dim>
					<dim>1</dim>
				</port>
			</output>
		</layer>
		<layer id="300" name="832891648/quantized18853067" type="Const" version="opset1">
			<data element_type="i8" offset="1866568" shape="80,320,1,1" size="25600"/>
			<output>
				<port id="0" precision="I8">
					<dim>80</dim>
					<dim>320</dim>
					<dim>1</dim>
					<dim>1</dim>
				</port>
			</output>
		</layer>
		<layer id="301" name="832891648/quantized/to_f16" type="Convert" version="opset1">
			<data destination_type="f16"/>
			<input>
				<port id="0">
					<dim>80</dim>
					<dim>320</dim>
					<dim>1</dim>
					<dim>1</dim>
				</port>
			</input>
			<output>
				<port id="1" precision="FP16">
					<dim>80</dim>
					<dim>320</dim>
					<dim>1</dim>
					<dim>1</dim>
				</port>
			</output>
		</layer>
		<layer id="302" name="145/WithoutBiases/fq_weights_1/zero_point18983481" type="Const" version="opset1">
			<data element_type="f16" offset="1892168" shape="80,1,1,1" size="160"/>
			<output>
				<port id="0" precision="FP16">
					<dim>80</dim>
					<dim>1</dim>
					<dim>1</dim>
					<dim>1</dim>
				</port>
			</output>
		</layer>
		<layer id="303" name="145/WithoutBiases/fq_weights_1/minus_zp" type="Subtract" version="opset1">
			<data auto_broadcast="numpy"/>
			<input>
				<port id="0">
					<dim>80</dim>
					<dim>320</dim>
					<dim>1</dim>
					<dim>1</dim>
				</port>
				<port id="1">
					<dim>80</dim>
					<dim>1</dim>
					<dim>1</dim>
					<dim>1</dim>
				</port>
			</input>
			<output>
				<port id="2" precision="FP16">
					<dim>80</dim>
					<dim>320</dim>
					<dim>1</dim>
					<dim>1</dim>
				</port>
			</output>
		</layer>
		<layer id="304" name="145/WithoutBiases/fq_weights_1/scale18933184" type="Const" version="opset1">
			<data element_type="f16" offset="1892328" shape="80,1,1,1" size="160"/>
			<output>
				<port id="0" precision="FP16">
					<dim>80</dim>
					<dim>1</dim>
					<dim>1</dim>
					<dim>1</dim>
				</port>
			</output>
		</layer>
		<layer id="305" name="145/WithoutBiases/fq_weights_1/mulpiply_by_scale" type="Multiply" version="opset1">
			<data auto_broadcast="numpy"/>
			<input>
				<port id="0">
					<dim>80</dim>
					<dim>320</dim>
					<dim>1</dim>
					<dim>1</dim>
				</port>
				<port id="1">
					<dim>80</dim>
					<dim>1</dim>
					<dim>1</dim>
					<dim>1</dim>
				</port>
			</input>
			<output>
				<port id="2" precision="FP16">
					<dim>80</dim>
					<dim>320</dim>
					<dim>1</dim>
					<dim>1</dim>
				</port>
			</output>
		</layer>
		<layer id="306" name="145/WithoutBiases" type="Convolution" version="opset1">
			<data auto_pad="explicit" dilations="1,1" pads_begin="0,0" pads_end="0,0" strides="1,1"/>
			<input>
				<port id="0">
					<dim>1</dim>
					<dim>320</dim>
					<dim>1</dim>
					<dim>1</dim>
				</port>
				<port id="1">
					<dim>80</dim>
					<dim>320</dim>
					<dim>1</dim>
					<dim>1</dim>
				</port>
			</input>
			<output>
				<port id="2" precision="FP16">
					<dim>1</dim>
					<dim>80</dim>
					<dim>1</dim>
					<dim>1</dim>
				</port>
			</output>
		</layer>
		<layer id="307" name="145/Dims17442913121" type="Const" version="opset1">
			<data element_type="f16" offset="1892488" shape="1,80,1,1" size="160"/>
			<output>
				<port id="0" precision="FP16">
					<dim>1</dim>
					<dim>80</dim>
					<dim>1</dim>
					<dim>1</dim>
				</port>
			</output>
		</layer>
		<layer id="308" name="145" type="Add" version="opset1">
			<data auto_broadcast="numpy"/>
			<input>
				<port id="0">
					<dim>1</dim>
					<dim>80</dim>
					<dim>1</dim>
					<dim>1</dim>
				</port>
				<port id="1">
					<dim>1</dim>
					<dim>80</dim>
					<dim>1</dim>
					<dim>1</dim>
				</port>
			</input>
			<output>
				<port id="2" names="145" precision="FP16">
					<dim>1</dim>
					<dim>80</dim>
					<dim>1</dim>
					<dim>1</dim>
				</port>
			</output>
		</layer>
		<layer id="309" name="146" type="ReLU" version="opset1">
			<input>
				<port id="0">
					<dim>1</dim>
					<dim>80</dim>
					<dim>1</dim>
					<dim>1</dim>
				</port>
			</input>
			<output>
				<port id="1" names="146" precision="FP16">
					<dim>1</dim>
					<dim>80</dim>
					<dim>1</dim>
					<dim>1</dim>
				</port>
			</output>
		</layer>
		<layer id="310" name="data_mul_314731512943052" type="Const" version="opset1">
			<data element_type="f16" offset="1892648" shape="1,80,1,1" size="160"/>
			<output>
				<port id="0" precision="FP16">
					<dim>1</dim>
					<dim>80</dim>
					<dim>1</dim>
					<dim>1</dim>
				</port>
			</output>
		</layer>
		<layer id="311" name="147/mean/Fused_Mul_" type="Multiply" version="opset1">
			<data auto_broadcast="numpy"/>
			<input>
				<port id="0">
					<dim>1</dim>
					<dim>80</dim>
					<dim>1</dim>
					<dim>1</dim>
				</port>
				<port id="1">
					<dim>1</dim>
					<dim>80</dim>
					<dim>1</dim>
					<dim>1</dim>
				</port>
			</input>
			<output>
				<port id="2" precision="FP16">
					<dim>1</dim>
					<dim>80</dim>
					<dim>1</dim>
					<dim>1</dim>
				</port>
			</output>
		</layer>
		<layer id="312" name="data_add_314831532963469" type="Const" version="opset1">
			<data element_type="f16" offset="1892808" shape="1,80,1,1" size="160"/>
			<output>
				<port id="0" precision="FP16">
					<dim>1</dim>
					<dim>80</dim>
					<dim>1</dim>
					<dim>1</dim>
				</port>
			</output>
		</layer>
		<layer id="313" name="147/variance/Fused_Add_" type="Add" version="opset1">
			<data auto_broadcast="numpy"/>
			<input>
				<port id="0">
					<dim>1</dim>
					<dim>80</dim>
					<dim>1</dim>
					<dim>1</dim>
				</port>
				<port id="1">
					<dim>1</dim>
					<dim>80</dim>
					<dim>1</dim>
					<dim>1</dim>
				</port>
			</input>
			<output>
				<port id="2" names="147" precision="FP16">
					<dim>1</dim>
					<dim>80</dim>
					<dim>1</dim>
					<dim>1</dim>
				</port>
			</output>
		</layer>
		<layer id="314" name="148/WithoutBiases/fq_input_0" type="FakeQuantize" version="opset1">
			<data auto_broadcast="numpy" levels="256"/>
			<input>
				<port id="0">
					<dim>1</dim>
					<dim>80</dim>
					<dim>1</dim>
					<dim>1</dim>
				</port>
				<port id="1"/>
				<port id="2"/>
				<port id="3"/>
				<port id="4"/>
			</input>
			<output>
				<port id="5" precision="FP16">
					<dim>1</dim>
					<dim>80</dim>
					<dim>1</dim>
					<dim>1</dim>
				</port>
			</output>
		</layer>
		<layer id="315" name="902981652/quantized20053118" type="Const" version="opset1">
			<data element_type="i8" offset="1892968" shape="3,80,1,1" size="240"/>
			<output>
				<port id="0" precision="I8">
					<dim>3</dim>
					<dim>80</dim>
					<dim>1</dim>
					<dim>1</dim>
				</port>
			</output>
		</layer>
		<layer id="316" name="902981652/quantized/to_f16" type="Convert" version="opset1">
			<data destination_type="f16"/>
			<input>
				<port id="0">
					<dim>3</dim>
					<dim>80</dim>
					<dim>1</dim>
					<dim>1</dim>
				</port>
			</input>
			<output>
				<port id="1" precision="FP16">
					<dim>3</dim>
					<dim>80</dim>
					<dim>1</dim>
					<dim>1</dim>
				</port>
			</output>
		</layer>
		<layer id="317" name="148/WithoutBiases/fq_weights_1/zero_point20183256" type="Const" version="opset1">
			<data element_type="f16" offset="1893208" shape="3,1,1,1" size="6"/>
			<output>
				<port id="0" precision="FP16">
					<dim>3</dim>
					<dim>1</dim>
					<dim>1</dim>
					<dim>1</dim>
				</port>
			</output>
		</layer>
		<layer id="318" name="148/WithoutBiases/fq_weights_1/minus_zp" type="Subtract" version="opset1">
			<data auto_broadcast="numpy"/>
			<input>
				<port id="0">
					<dim>3</dim>
					<dim>80</dim>
					<dim>1</dim>
					<dim>1</dim>
				</port>
				<port id="1">
					<dim>3</dim>
					<dim>1</dim>
					<dim>1</dim>
					<dim>1</dim>
				</port>
			</input>
			<output>
				<port id="2" precision="FP16">
					<dim>3</dim>
					<dim>80</dim>
					<dim>1</dim>
					<dim>1</dim>
				</port>
			</output>
		</layer>
		<layer id="319" name="148/WithoutBiases/fq_weights_1/scale20133295" type="Const" version="opset1">
			<data element_type="f16" offset="1893214" shape="3,1,1,1" size="6"/>
			<output>
				<port id="0" precision="FP16">
					<dim>3</dim>
					<dim>1</dim>
					<dim>1</dim>
					<dim>1</dim>
				</port>
			</output>
		</layer>
		<layer id="320" name="148/WithoutBiases/fq_weights_1/mulpiply_by_scale" type="Multiply" version="opset1">
			<data auto_broadcast="numpy"/>
			<input>
				<port id="0">
					<dim>3</dim>
					<dim>80</dim>
					<dim>1</dim>
					<dim>1</dim>
				</port>
				<port id="1">
					<dim>3</dim>
					<dim>1</dim>
					<dim>1</dim>
					<dim>1</dim>
				</port>
			</input>
			<output>
				<port id="2" precision="FP16">
					<dim>3</dim>
					<dim>80</dim>
					<dim>1</dim>
					<dim>1</dim>
				</port>
			</output>
		</layer>
		<layer id="321" name="148/WithoutBiases" type="Convolution" version="opset1">
			<data auto_pad="explicit" dilations="1,1" pads_begin="0,0" pads_end="0,0" strides="1,1"/>
			<input>
				<port id="0">
					<dim>1</dim>
					<dim>80</dim>
					<dim>1</dim>
					<dim>1</dim>
				</port>
				<port id="1">
					<dim>3</dim>
					<dim>80</dim>
					<dim>1</dim>
					<dim>1</dim>
				</port>
			</input>
			<output>
				<port id="2" precision="FP16">
					<dim>1</dim>
					<dim>3</dim>
					<dim>1</dim>
					<dim>1</dim>
				</port>
			</output>
		</layer>
		<layer id="322" name="148/Dims17803003181" type="Const" version="opset1">
			<data element_type="f16" offset="1893220" shape="1,3,1,1" size="6"/>
			<output>
				<port id="0" precision="FP16">
					<dim>1</dim>
					<dim>3</dim>
					<dim>1</dim>
					<dim>1</dim>
				</port>
			</output>
		</layer>
		<layer id="323" name="148" type="Add" version="opset1">
			<data auto_broadcast="numpy"/>
			<input>
				<port id="0">
					<dim>1</dim>
					<dim>3</dim>
					<dim>1</dim>
					<dim>1</dim>
				</port>
				<port id="1">
					<dim>1</dim>
					<dim>3</dim>
					<dim>1</dim>
					<dim>1</dim>
				</port>
			</input>
			<output>
				<port id="2" names="148" precision="FP16">
					<dim>1</dim>
					<dim>3</dim>
					<dim>1</dim>
					<dim>1</dim>
				</port>
			</output>
		</layer>
		<layer id="324" name="149/Concat19276293302" type="Const" version="opset1">
			<data element_type="i64" offset="1893226" shape="4" size="32"/>
			<output>
				<port id="0" precision="I64">
					<dim>4</dim>
				</port>
			</output>
		</layer>
		<layer id="325" name="149/Concat191119286443303" type="Const" version="opset1">
			<data element_type="i64" offset="1893258" shape="4" size="32"/>
			<output>
				<port id="0" precision="I64">
					<dim>4</dim>
				</port>
			</output>
		</layer>
		<layer id="326" name="149/Strides19296374304" type="Const" version="opset1">
			<data element_type="i64" offset="1893290" shape="4" size="32"/>
			<output>
				<port id="0" precision="I64">
					<dim>4</dim>
				</port>
			</output>
		</layer>
		<layer id="327" name="149" type="StridedSlice" version="opset1">
			<data begin_mask="1,1,0,1" ellipsis_mask="0,0,0,0" end_mask="1,1,0,1" new_axis_mask="0,0,0,0" shrink_axis_mask="0,0,0,0"/>
			<input>
				<port id="0">
					<dim>1</dim>
					<dim>3</dim>
					<dim>1</dim>
					<dim>1</dim>
				</port>
				<port id="1">
					<dim>4</dim>
				</port>
				<port id="2">
					<dim>4</dim>
				</port>
				<port id="3">
					<dim>4</dim>
				</port>
			</input>
			<output>
				<port id="4" names="149" precision="FP16">
					<dim>1</dim>
					<dim>3</dim>
					<dim>1</dim>
					<dim>1</dim>
				</port>
			</output>
		</layer>
		<layer id="328" name="150/Dims3063502" type="Const" version="opset1">
			<data element_type="i64" offset="16" shape="1" size="8"/>
			<output>
				<port id="0" precision="I64">
					<dim>1</dim>
				</port>
			</output>
		</layer>
		<layer id="329" name="150" type="Squeeze" version="opset1">
			<input>
				<port id="0">
					<dim>1</dim>
					<dim>3</dim>
					<dim>1</dim>
					<dim>1</dim>
				</port>
				<port id="1">
					<dim>1</dim>
				</port>
			</input>
			<output>
				<port id="2" names="150" precision="FP16">
					<dim>1</dim>
					<dim>3</dim>
					<dim>1</dim>
				</port>
			</output>
		</layer>
		<layer id="330" name="151/Concat19716392308" type="Const" version="opset1">
			<data element_type="i64" offset="1893322" shape="3" size="24"/>
			<output>
				<port id="0" precision="I64">
					<dim>3</dim>
				</port>
			</output>
		</layer>
		<layer id="331" name="151/Concat195719726335309" type="Const" version="opset1">
			<data element_type="i64" offset="1893346" shape="3" size="24"/>
			<output>
				<port id="0" precision="I64">
					<dim>3</dim>
				</port>
			</output>
		</layer>
		<layer id="332" name="151/Strides19736320310" type="Const" version="opset1">
			<data element_type="i64" offset="1893370" shape="3" size="24"/>
			<output>
				<port id="0" precision="I64">
					<dim>3</dim>
				</port>
			</output>
		</layer>
		<layer id="333" name="151" type="StridedSlice" version="opset1">
			<data begin_mask="1,1,0" ellipsis_mask="0,0,0" end_mask="1,1,0" new_axis_mask="0,0,0" shrink_axis_mask="0,0,0"/>
			<input>
				<port id="0">
					<dim>1</dim>
					<dim>3</dim>
					<dim>1</dim>
				</port>
				<port id="1">
					<dim>3</dim>
				</port>
				<port id="2">
					<dim>3</dim>
				</port>
				<port id="3">
					<dim>3</dim>
				</port>
			</input>
			<output>
				<port id="4" names="151" precision="FP16">
					<dim>1</dim>
					<dim>3</dim>
					<dim>1</dim>
				</port>
			</output>
		</layer>
		<layer id="334" name="gaze_vector154/Dims3123016" type="Const" version="opset1">
			<data element_type="i64" offset="16" shape="1" size="8"/>
			<output>
				<port id="0" precision="I64">
					<dim>1</dim>
				</port>
			</output>
		</layer>
		<layer id="335" name="gaze_vector" type="Squeeze" version="opset1">
			<input>
				<port id="0">
					<dim>1</dim>
					<dim>3</dim>
					<dim>1</dim>
				</port>
				<port id="1">
					<dim>1</dim>
				</port>
			</input>
			<output>
				<port id="2" names="gaze_vector" precision="FP16">
					<dim>1</dim>
					<dim>3</dim>
				</port>
			</output>
		</layer>
		<layer id="336" name="gaze_vector/sink_port_0" type="Result" version="opset1">
			<input>
				<port id="0">
					<dim>1</dim>
					<dim>3</dim>
				</port>
			</input>
		</layer>
	</layers>
	<edges>
		<edge from-layer="14" from-port="0" to-layer="15" to-port="0"/>
		<edge from-layer="10" from-port="0" to-layer="15" to-port="1"/>
		<edge from-layer="11" from-port="0" to-layer="15" to-port="2"/>
		<edge from-layer="12" from-port="0" to-layer="15" to-port="3"/>
		<edge from-layer="13" from-port="0" to-layer="15" to-port="4"/>
		<edge from-layer="14" from-port="0" to-layer="16" to-port="0"/>
		<edge from-layer="16" from-port="1" to-layer="19" to-port="0"/>
		<edge from-layer="17" from-port="0" to-layer="19" to-port="1"/>
		<edge from-layer="18" from-port="0" to-layer="19" to-port="2"/>
		<edge from-layer="19" from-port="3" to-layer="21" to-port="0"/>
		<edge from-layer="20" from-port="0" to-layer="21" to-port="1"/>
		<edge from-layer="21" from-port="2" to-layer="23" to-port="0"/>
		<edge from-layer="22" from-port="0" to-layer="23" to-port="1"/>
		<edge from-layer="15" from-port="5" to-layer="24" to-port="0"/>
		<edge from-layer="23" from-port="2" to-layer="24" to-port="1"/>
		<edge from-layer="69" from-port="0" to-layer="71" to-port="0"/>
		<edge from-layer="70" from-port="0" to-layer="71" to-port="1"/>
		<edge from-layer="71" from-port="2" to-layer="73" to-port="0"/>
		<edge from-layer="72" from-port="0" to-layer="73" to-port="1"/>
		<edge from-layer="73" from-port="2" to-layer="74" to-port="0"/>
		<edge from-layer="65" from-port="0" to-layer="74" to-port="1"/>
		<edge from-layer="66" from-port="0" to-layer="74" to-port="2"/>
		<edge from-layer="67" from-port="0" to-layer="74" to-port="3"/>
		<edge from-layer="68" from-port="0" to-layer="74" to-port="4"/>
		<edge from-layer="75" from-port="0" to-layer="76" to-port="0"/>
		<edge from-layer="76" from-port="1" to-layer="78" to-port="0"/>
		<edge from-layer="77" from-port="0" to-layer="78" to-port="1"/>
		<edge from-layer="78" from-port="2" to-layer="80" to-port="0"/>
		<edge from-layer="79" from-port="0" to-layer="80" to-port="1"/>
		<edge from-layer="74" from-port="5" to-layer="81" to-port="0"/>
		<edge from-layer="80" from-port="2" to-layer="81" to-port="1"/>
		<edge from-layer="81" from-port="2" to-layer="83" to-port="0"/>
		<edge from-layer="82" from-port="0" to-layer="83" to-port="1"/>
		<edge from-layer="83" from-port="2" to-layer="84" to-port="0"/>
		<edge from-layer="84" from-port="1" to-layer="86" to-port="0"/>
		<edge from-layer="85" from-port="0" to-layer="86" to-port="1"/>
		<edge from-layer="86" from-port="2" to-layer="88" to-port="0"/>
		<edge from-layer="87" from-port="0" to-layer="88" to-port="1"/>
		<edge from-layer="88" from-port="2" to-layer="89" to-port="0"/>
		<edge from-layer="61" from-port="0" to-layer="89" to-port="1"/>
		<edge from-layer="62" from-port="0" to-layer="89" to-port="2"/>
		<edge from-layer="63" from-port="0" to-layer="89" to-port="3"/>
		<edge from-layer="64" from-port="0" to-layer="89" to-port="4"/>
		<edge from-layer="90" from-port="0" to-layer="91" to-port="0"/>
		<edge from-layer="91" from-port="1" to-layer="93" to-port="0"/>
		<edge from-layer="92" from-port="0" to-layer="93" to-port="1"/>
		<edge from-layer="93" from-port="2" to-layer="95" to-port="0"/>
		<edge from-layer="94" from-port="0" to-layer="95" to-port="1"/>
		<edge from-layer="89" from-port="5" to-layer="96" to-port="0"/>
		<edge from-layer="95" from-port="2" to-layer="96" to-port="1"/>
		<edge from-layer="96" from-port="2" to-layer="98" to-port="0"/>
		<edge from-layer="97" from-port="0" to-layer="98" to-port="1"/>
		<edge from-layer="98" from-port="2" to-layer="99" to-port="0"/>
		<edge from-layer="57" from-port="0" to-layer="99" to-port="1"/>
		<edge from-layer="58" from-port="0" to-layer="99" to-port="2"/>
		<edge from-layer="59" from-port="0" to-layer="99" to-port="3"/>
		<edge from-layer="60" from-port="0" to-layer="99" to-port="4"/>
		<edge from-layer="100" from-port="0" to-layer="101" to-port="0"/>
		<edge from-layer="101" from-port="1" to-layer="103" to-port="0"/>
		<edge from-layer="102" from-port="0" to-layer="103" to-port="1"/>
		<edge from-layer="103" from-port="2" to-layer="105" to-port="0"/>
		<edge from-layer="104" from-port="0" to-layer="105" to-port="1"/>
		<edge from-layer="99" from-port="5" to-layer="106" to-port="0"/>
		<edge from-layer="105" from-port="2" to-layer="106" to-port="1"/>
		<edge from-layer="106" from-port="2" to-layer="108" to-port="0"/>
		<edge from-layer="107" from-port="0" to-layer="108" to-port="1"/>
		<edge from-layer="108" from-port="2" to-layer="109" to-port="0"/>
		<edge from-layer="109" from-port="1" to-layer="111" to-port="0"/>
		<edge from-layer="110" from-port="0" to-layer="111" to-port="1"/>
		<edge from-layer="111" from-port="2" to-layer="113" to-port="0"/>
		<edge from-layer="112" from-port="0" to-layer="113" to-port="1"/>
		<edge from-layer="113" from-port="2" to-layer="114" to-port="0"/>
		<edge from-layer="53" from-port="0" to-layer="114" to-port="1"/>
		<edge from-layer="54" from-port="0" to-layer="114" to-port="2"/>
		<edge from-layer="55" from-port="0" to-layer="114" to-port="3"/>
		<edge from-layer="56" from-port="0" to-layer="114" to-port="4"/>
		<edge from-layer="115" from-port="0" to-layer="116" to-port="0"/>
		<edge from-layer="116" from-port="1" to-layer="118" to-port="0"/>
		<edge from-layer="117" from-port="0" to-layer="118" to-port="1"/>
		<edge from-layer="118" from-port="2" to-layer="120" to-port="0"/>
		<edge from-layer="119" from-port="0" to-layer="120" to-port="1"/>
		<edge from-layer="114" from-port="5" to-layer="121" to-port="0"/>
		<edge from-layer="120" from-port="2" to-layer="121" to-port="1"/>
		<edge from-layer="121" from-port="2" to-layer="123" to-port="0"/>
		<edge from-layer="122" from-port="0" to-layer="123" to-port="1"/>
		<edge from-layer="123" from-port="2" to-layer="124" to-port="0"/>
		<edge from-layer="49" from-port="0" to-layer="124" to-port="1"/>
		<edge from-layer="50" from-port="0" to-layer="124" to-port="2"/>
		<edge from-layer="51" from-port="0" to-layer="124" to-port="3"/>
		<edge from-layer="52" from-port="0" to-layer="124" to-port="4"/>
		<edge from-layer="145" from-port="0" to-layer="147" to-port="0"/>
		<edge from-layer="146" from-port="0" to-layer="147" to-port="1"/>
		<edge from-layer="147" from-port="2" to-layer="149" to-port="0"/>
		<edge from-layer="148" from-port="0" to-layer="149" to-port="1"/>
		<edge from-layer="149" from-port="2" to-layer="150" to-port="0"/>
		<edge from-layer="141" from-port="0" to-layer="150" to-port="1"/>
		<edge from-layer="142" from-port="0" to-layer="150" to-port="2"/>
		<edge from-layer="143" from-port="0" to-layer="150" to-port="3"/>
		<edge from-layer="144" from-port="0" to-layer="150" to-port="4"/>
		<edge from-layer="151" from-port="0" to-layer="152" to-port="0"/>
		<edge from-layer="152" from-port="1" to-layer="154" to-port="0"/>
		<edge from-layer="153" from-port="0" to-layer="154" to-port="1"/>
		<edge from-layer="154" from-port="2" to-layer="156" to-port="0"/>
		<edge from-layer="155" from-port="0" to-layer="156" to-port="1"/>
		<edge from-layer="150" from-port="5" to-layer="157" to-port="0"/>
		<edge from-layer="156" from-port="2" to-layer="157" to-port="1"/>
		<edge from-layer="157" from-port="2" to-layer="159" to-port="0"/>
		<edge from-layer="158" from-port="0" to-layer="159" to-port="1"/>
		<edge from-layer="159" from-port="2" to-layer="160" to-port="0"/>
		<edge from-layer="160" from-port="1" to-layer="162" to-port="0"/>
		<edge from-layer="161" from-port="0" to-layer="162" to-port="1"/>
		<edge from-layer="162" from-port="2" to-layer="164" to-port="0"/>
		<edge from-layer="163" from-port="0" to-layer="164" to-port="1"/>
		<edge from-layer="164" from-port="2" to-layer="165" to-port="0"/>
		<edge from-layer="137" from-port="0" to-layer="165" to-port="1"/>
		<edge from-layer="138" from-port="0" to-layer="165" to-port="2"/>
		<edge from-layer="139" from-port="0" to-layer="165" to-port="3"/>
		<edge from-layer="140" from-port="0" to-layer="165" to-port="4"/>
		<edge from-layer="166" from-port="0" to-layer="167" to-port="0"/>
		<edge from-layer="167" from-port="1" to-layer="169" to-port="0"/>
		<edge from-layer="168" from-port="0" to-layer="169" to-port="1"/>
		<edge from-layer="169" from-port="2" to-layer="171" to-port="0"/>
		<edge from-layer="170" from-port="0" to-layer="171" to-port="1"/>
		<edge from-layer="165" from-port="5" to-layer="172" to-port="0"/>
		<edge from-layer="171" from-port="2" to-layer="172" to-port="1"/>
		<edge from-layer="172" from-port="2" to-layer="174" to-port="0"/>
		<edge from-layer="173" from-port="0" to-layer="174" to-port="1"/>
		<edge from-layer="174" from-port="2" to-layer="175" to-port="0"/>
		<edge from-layer="133" from-port="0" to-layer="175" to-port="1"/>
		<edge from-layer="134" from-port="0" to-layer="175" to-port="2"/>
		<edge from-layer="135" from-port="0" to-layer="175" to-port="3"/>
		<edge from-layer="136" from-port="0" to-layer="175" to-port="4"/>
		<edge from-layer="176" from-port="0" to-layer="177" to-port="0"/>
		<edge from-layer="177" from-port="1" to-layer="179" to-port="0"/>
		<edge from-layer="178" from-port="0" to-layer="179" to-port="1"/>
		<edge from-layer="179" from-port="2" to-layer="181" to-port="0"/>
		<edge from-layer="180" from-port="0" to-layer="181" to-port="1"/>
		<edge from-layer="175" from-port="5" to-layer="182" to-port="0"/>
		<edge from-layer="181" from-port="2" to-layer="182" to-port="1"/>
		<edge from-layer="182" from-port="2" to-layer="184" to-port="0"/>
		<edge from-layer="183" from-port="0" to-layer="184" to-port="1"/>
		<edge from-layer="184" from-port="2" to-layer="185" to-port="0"/>
		<edge from-layer="185" from-port="1" to-layer="187" to-port="0"/>
		<edge from-layer="186" from-port="0" to-layer="187" to-port="1"/>
		<edge from-layer="187" from-port="2" to-layer="189" to-port="0"/>
		<edge from-layer="188" from-port="0" to-layer="189" to-port="1"/>
		<edge from-layer="189" from-port="2" to-layer="190" to-port="0"/>
		<edge from-layer="129" from-port="0" to-layer="190" to-port="1"/>
		<edge from-layer="130" from-port="0" to-layer="190" to-port="2"/>
		<edge from-layer="131" from-port="0" to-layer="190" to-port="3"/>
		<edge from-layer="132" from-port="0" to-layer="190" to-port="4"/>
		<edge from-layer="191" from-port="0" to-layer="192" to-port="0"/>
		<edge from-layer="192" from-port="1" to-layer="194" to-port="0"/>
		<edge from-layer="193" from-port="0" to-layer="194" to-port="1"/>
		<edge from-layer="194" from-port="2" to-layer="196" to-port="0"/>
		<edge from-layer="195" from-port="0" to-layer="196" to-port="1"/>
		<edge from-layer="190" from-port="5" to-layer="197" to-port="0"/>
		<edge from-layer="196" from-port="2" to-layer="197" to-port="1"/>
		<edge from-layer="197" from-port="2" to-layer="199" to-port="0"/>
		<edge from-layer="198" from-port="0" to-layer="199" to-port="1"/>
		<edge from-layer="199" from-port="2" to-layer="200" to-port="0"/>
		<edge from-layer="125" from-port="0" to-layer="200" to-port="1"/>
		<edge from-layer="126" from-port="0" to-layer="200" to-port="2"/>
		<edge from-layer="127" from-port="0" to-layer="200" to-port="3"/>
		<edge from-layer="128" from-port="0" to-layer="200" to-port="4"/>
		<edge from-layer="124" from-port="5" to-layer="201" to-port="0"/>
		<edge from-layer="200" from-port="5" to-layer="201" to-port="1"/>
		<edge from-layer="202" from-port="0" to-layer="203" to-port="0"/>
		<edge from-layer="203" from-port="1" to-layer="205" to-port="0"/>
		<edge from-layer="204" from-port="0" to-layer="205" to-port="1"/>
		<edge from-layer="205" from-port="2" to-layer="207" to-port="0"/>
		<edge from-layer="206" from-port="0" to-layer="207" to-port="1"/>
		<edge from-layer="201" from-port="2" to-layer="208" to-port="0"/>
		<edge from-layer="207" from-port="2" to-layer="208" to-port="1"/>
		<edge from-layer="208" from-port="2" to-layer="210" to-port="0"/>
		<edge from-layer="209" from-port="0" to-layer="210" to-port="1"/>
		<edge from-layer="210" from-port="2" to-layer="211" to-port="0"/>
		<edge from-layer="211" from-port="1" to-layer="213" to-port="0"/>
		<edge from-layer="212" from-port="0" to-layer="213" to-port="1"/>
		<edge from-layer="213" from-port="2" to-layer="215" to-port="0"/>
		<edge from-layer="214" from-port="0" to-layer="215" to-port="1"/>
		<edge from-layer="215" from-port="2" to-layer="216" to-port="0"/>
		<edge from-layer="45" from-port="0" to-layer="216" to-port="1"/>
		<edge from-layer="46" from-port="0" to-layer="216" to-port="2"/>
		<edge from-layer="47" from-port="0" to-layer="216" to-port="3"/>
		<edge from-layer="48" from-port="0" to-layer="216" to-port="4"/>
		<edge from-layer="217" from-port="0" to-layer="218" to-port="0"/>
		<edge from-layer="218" from-port="1" to-layer="220" to-port="0"/>
		<edge from-layer="219" from-port="0" to-layer="220" to-port="1"/>
		<edge from-layer="220" from-port="2" to-layer="222" to-port="0"/>
		<edge from-layer="221" from-port="0" to-layer="222" to-port="1"/>
		<edge from-layer="216" from-port="5" to-layer="223" to-port="0"/>
		<edge from-layer="222" from-port="2" to-layer="223" to-port="1"/>
		<edge from-layer="223" from-port="2" to-layer="225" to-port="0"/>
		<edge from-layer="224" from-port="0" to-layer="225" to-port="1"/>
		<edge from-layer="225" from-port="2" to-layer="226" to-port="0"/>
		<edge from-layer="41" from-port="0" to-layer="226" to-port="1"/>
		<edge from-layer="42" from-port="0" to-layer="226" to-port="2"/>
		<edge from-layer="43" from-port="0" to-layer="226" to-port="3"/>
		<edge from-layer="44" from-port="0" to-layer="226" to-port="4"/>
		<edge from-layer="227" from-port="0" to-layer="228" to-port="0"/>
		<edge from-layer="228" from-port="1" to-layer="230" to-port="0"/>
		<edge from-layer="229" from-port="0" to-layer="230" to-port="1"/>
		<edge from-layer="230" from-port="2" to-layer="232" to-port="0"/>
		<edge from-layer="231" from-port="0" to-layer="232" to-port="1"/>
		<edge from-layer="226" from-port="5" to-layer="233" to-port="0"/>
		<edge from-layer="232" from-port="2" to-layer="233" to-port="1"/>
		<edge from-layer="233" from-port="2" to-layer="235" to-port="0"/>
		<edge from-layer="234" from-port="0" to-layer="235" to-port="1"/>
		<edge from-layer="235" from-port="2" to-layer="236" to-port="0"/>
		<edge from-layer="236" from-port="1" to-layer="238" to-port="0"/>
		<edge from-layer="237" from-port="0" to-layer="238" to-port="1"/>
		<edge from-layer="238" from-port="2" to-layer="240" to-port="0"/>
		<edge from-layer="239" from-port="0" to-layer="240" to-port="1"/>
		<edge from-layer="240" from-port="2" to-layer="241" to-port="0"/>
		<edge from-layer="37" from-port="0" to-layer="241" to-port="1"/>
		<edge from-layer="38" from-port="0" to-layer="241" to-port="2"/>
		<edge from-layer="39" from-port="0" to-layer="241" to-port="3"/>
		<edge from-layer="40" from-port="0" to-layer="241" to-port="4"/>
		<edge from-layer="242" from-port="0" to-layer="243" to-port="0"/>
		<edge from-layer="243" from-port="1" to-layer="245" to-port="0"/>
		<edge from-layer="244" from-port="0" to-layer="245" to-port="1"/>
		<edge from-layer="245" from-port="2" to-layer="247" to-port="0"/>
		<edge from-layer="246" from-port="0" to-layer="247" to-port="1"/>
		<edge from-layer="241" from-port="5" to-layer="248" to-port="0"/>
		<edge from-layer="247" from-port="2" to-layer="248" to-port="1"/>
		<edge from-layer="248" from-port="2" to-layer="250" to-port="0"/>
		<edge from-layer="249" from-port="0" to-layer="250" to-port="1"/>
		<edge from-layer="250" from-port="2" to-layer="251" to-port="0"/>
		<edge from-layer="33" from-port="0" to-layer="251" to-port="1"/>
		<edge from-layer="34" from-port="0" to-layer="251" to-port="2"/>
		<edge from-layer="35" from-port="0" to-layer="251" to-port="3"/>
		<edge from-layer="36" from-port="0" to-layer="251" to-port="4"/>
		<edge from-layer="252" from-port="0" to-layer="253" to-port="0"/>
		<edge from-layer="253" from-port="1" to-layer="255" to-port="0"/>
		<edge from-layer="254" from-port="0" to-layer="255" to-port="1"/>
		<edge from-layer="255" from-port="2" to-layer="257" to-port="0"/>
		<edge from-layer="256" from-port="0" to-layer="257" to-port="1"/>
		<edge from-layer="251" from-port="5" to-layer="258" to-port="0"/>
		<edge from-layer="257" from-port="2" to-layer="258" to-port="1"/>
		<edge from-layer="258" from-port="2" to-layer="260" to-port="0"/>
		<edge from-layer="259" from-port="0" to-layer="260" to-port="1"/>
		<edge from-layer="260" from-port="2" to-layer="261" to-port="0"/>
		<edge from-layer="261" from-port="1" to-layer="263" to-port="0"/>
		<edge from-layer="262" from-port="0" to-layer="263" to-port="1"/>
		<edge from-layer="263" from-port="2" to-layer="265" to-port="0"/>
		<edge from-layer="264" from-port="0" to-layer="265" to-port="1"/>
		<edge from-layer="265" from-port="2" to-layer="266" to-port="0"/>
		<edge from-layer="29" from-port="0" to-layer="266" to-port="1"/>
		<edge from-layer="30" from-port="0" to-layer="266" to-port="2"/>
		<edge from-layer="31" from-port="0" to-layer="266" to-port="3"/>
		<edge from-layer="32" from-port="0" to-layer="266" to-port="4"/>
		<edge from-layer="267" from-port="0" to-layer="268" to-port="0"/>
		<edge from-layer="268" from-port="1" to-layer="270" to-port="0"/>
		<edge from-layer="269" from-port="0" to-layer="270" to-port="1"/>
		<edge from-layer="270" from-port="2" to-layer="272" to-port="0"/>
		<edge from-layer="271" from-port="0" to-layer="272" to-port="1"/>
		<edge from-layer="266" from-port="5" to-layer="273" to-port="0"/>
		<edge from-layer="272" from-port="2" to-layer="273" to-port="1"/>
		<edge from-layer="273" from-port="2" to-layer="275" to-port="0"/>
		<edge from-layer="274" from-port="0" to-layer="275" to-port="1"/>
		<edge from-layer="275" from-port="2" to-layer="276" to-port="0"/>
		<edge from-layer="25" from-port="0" to-layer="276" to-port="1"/>
		<edge from-layer="26" from-port="0" to-layer="276" to-port="2"/>
		<edge from-layer="27" from-port="0" to-layer="276" to-port="3"/>
		<edge from-layer="28" from-port="0" to-layer="276" to-port="4"/>
		<edge from-layer="275" from-port="2" to-layer="277" to-port="0"/>
		<edge from-layer="277" from-port="1" to-layer="280" to-port="0"/>
		<edge from-layer="278" from-port="0" to-layer="280" to-port="1"/>
		<edge from-layer="279" from-port="0" to-layer="280" to-port="2"/>
		<edge from-layer="280" from-port="3" to-layer="282" to-port="0"/>
		<edge from-layer="281" from-port="0" to-layer="282" to-port="1"/>
		<edge from-layer="282" from-port="2" to-layer="284" to-port="0"/>
		<edge from-layer="283" from-port="0" to-layer="284" to-port="1"/>
		<edge from-layer="276" from-port="5" to-layer="285" to-port="0"/>
		<edge from-layer="284" from-port="2" to-layer="285" to-port="1"/>
		<edge from-layer="285" from-port="2" to-layer="286" to-port="0"/>
		<edge from-layer="24" from-port="2" to-layer="286" to-port="1"/>
		<edge from-layer="286" from-port="2" to-layer="287" to-port="0"/>
		<edge from-layer="9" from-port="0" to-layer="287" to-port="1"/>
		<edge from-layer="287" from-port="2" to-layer="288" to-port="0"/>
		<edge from-layer="8" from-port="0" to-layer="288" to-port="1"/>
		<edge from-layer="289" from-port="0" to-layer="290" to-port="0"/>
		<edge from-layer="290" from-port="1" to-layer="292" to-port="0"/>
		<edge from-layer="291" from-port="0" to-layer="292" to-port="1"/>
		<edge from-layer="292" from-port="2" to-layer="294" to-port="0"/>
		<edge from-layer="293" from-port="0" to-layer="294" to-port="1"/>
		<edge from-layer="288" from-port="2" to-layer="295" to-port="0"/>
		<edge from-layer="294" from-port="2" to-layer="295" to-port="1"/>
		<edge from-layer="295" from-port="2" to-layer="297" to-port="0"/>
		<edge from-layer="296" from-port="0" to-layer="297" to-port="1"/>
		<edge from-layer="297" from-port="2" to-layer="298" to-port="0"/>
		<edge from-layer="298" from-port="1" to-layer="299" to-port="0"/>
		<edge from-layer="4" from-port="0" to-layer="299" to-port="1"/>
		<edge from-layer="5" from-port="0" to-layer="299" to-port="2"/>
		<edge from-layer="6" from-port="0" to-layer="299" to-port="3"/>
		<edge from-layer="7" from-port="0" to-layer="299" to-port="4"/>
		<edge from-layer="300" from-port="0" to-layer="301" to-port="0"/>
		<edge from-layer="301" from-port="1" to-layer="303" to-port="0"/>
		<edge from-layer="302" from-port="0" to-layer="303" to-port="1"/>
		<edge from-layer="303" from-port="2" to-layer="305" to-port="0"/>
		<edge from-layer="304" from-port="0" to-layer="305" to-port="1"/>
		<edge from-layer="299" from-port="5" to-layer="306" to-port="0"/>
		<edge from-layer="305" from-port="2" to-layer="306" to-port="1"/>
		<edge from-layer="306" from-port="2" to-layer="308" to-port="0"/>
		<edge from-layer="307" from-port="0" to-layer="308" to-port="1"/>
		<edge from-layer="308" from-port="2" to-layer="309" to-port="0"/>
		<edge from-layer="309" from-port="1" to-layer="311" to-port="0"/>
		<edge from-layer="310" from-port="0" to-layer="311" to-port="1"/>
		<edge from-layer="311" from-port="2" to-layer="313" to-port="0"/>
		<edge from-layer="312" from-port="0" to-layer="313" to-port="1"/>
		<edge from-layer="313" from-port="2" to-layer="314" to-port="0"/>
		<edge from-layer="0" from-port="0" to-layer="314" to-port="1"/>
		<edge from-layer="1" from-port="0" to-layer="314" to-port="2"/>
		<edge from-layer="2" from-port="0" to-layer="314" to-port="3"/>
		<edge from-layer="3" from-port="0" to-layer="314" to-port="4"/>
		<edge from-layer="315" from-port="0" to-layer="316" to-port="0"/>
		<edge from-layer="316" from-port="1" to-layer="318" to-port="0"/>
		<edge from-layer="317" from-port="0" to-layer="318" to-port="1"/>
		<edge from-layer="318" from-port="2" to-layer="320" to-port="0"/>
		<edge from-layer="319" from-port="0" to-layer="320" to-port="1"/>
		<edge from-layer="314" from-port="5" to-layer="321" to-port="0"/>
		<edge from-layer="320" from-port="2" to-layer="321" to-port="1"/>
		<edge from-layer="321" from-port="2" to-layer="323" to-port="0"/>
		<edge from-layer="322" from-port="0" to-layer="323" to-port="1"/>
		<edge from-layer="323" from-port="2" to-layer="327" to-port="0"/>
		<edge from-layer="324" from-port="0" to-layer="327" to-port="1"/>
		<edge from-layer="325" from-port="0" to-layer="327" to-port="2"/>
		<edge from-layer="326" from-port="0" to-layer="327" to-port="3"/>
		<edge from-layer="327" from-port="4" to-layer="329" to-port="0"/>
		<edge from-layer="328" from-port="0" to-layer="329" to-port="1"/>
		<edge from-layer="329" from-port="2" to-layer="333" to-port="0"/>
		<edge from-layer="330" from-port="0" to-layer="333" to-port="1"/>
		<edge from-layer="331" from-port="0" to-layer="333" to-port="2"/>
		<edge from-layer="332" from-port="0" to-layer="333" to-port="3"/>
		<edge from-layer="333" from-port="4" to-layer="335" to-port="0"/>
		<edge from-layer="334" from-port="0" to-layer="335" to-port="1"/>
		<edge from-layer="335" from-port="2" to-layer="336" to-port="0"/>
	</edges>
	<meta_data>
		<MO_version value="custom_HEAD_149c43044cb1e8ed8cd4f3f196b23f7b3f129a36"/>
		<cli_parameters>
			<caffe_parser_path value="DIR"/>
			<data_type value="FP16"/>
			<disable_nhwc_to_nchw value="False"/>
			<disable_omitting_optional value="False"/>
			<disable_resnet_optimization value="False"/>
			<disable_weights_compression value="False"/>
			<enable_concat_optimization value="False"/>
			<enable_flattening_nested_params value="False"/>
			<enable_ssd_gluoncv value="False"/>
			<extensions value="DIR"/>
			<framework value="onnx"/>
			<freeze_placeholder_with_value value="{}"/>
			<generate_deprecated_IR_V7 value="False"/>
			<input value="left_eye_image,right_eye_image,head_pose_angles"/>
			<input_model value="DIR/gaze-estimation-adas-0002.onnx"/>
			<input_model_is_text value="False"/>
			<input_shape value="[1,3,60,60],[1,3,60,60],[1,3]"/>
			<k value="DIR/CustomLayersMapping.xml"/>
			<keep_shape_ops value="True"/>
			<legacy_ir_generation value="False"/>
			<legacy_mxnet_model value="False"/>
			<log_level value="ERROR"/>
			<mean_scale_values value="{}"/>
			<mean_values value="()"/>
			<model_name value="gaze-estimation-adas-0002"/>
			<output value="['gaze_vector']"/>
			<output_dir value="DIR"/>
			<placeholder_data_types value="{}"/>
			<placeholder_shapes value="{'left_eye_image': array([ 1,  3, 60, 60]), 'right_eye_image': array([ 1,  3, 60, 60]), 'head_pose_angles': array([1, 3])}"/>
			<progress value="False"/>
			<remove_memory value="False"/>
			<remove_output_softmax value="False"/>
			<reverse_input_channels value="False"/>
			<save_params_from_nd value="False"/>
			<scale_values value="()"/>
			<silent value="False"/>
			<static_shape value="False"/>
			<stream_output value="False"/>
			<transform value=""/>
			<unset unset_cli_parameters="batch, counts, disable_fusing, disable_gfusing, finegrain_fusing, input_checkpoint, input_meta_graph, input_proto, input_symbol, mean_file, mean_file_offsets, move_to_preprocess, nd_prefix_name, pretrained_model_name, saved_model_dir, saved_model_tags, scale, tensorboard_logdir, tensorflow_custom_layer_libraries, tensorflow_custom_operations_config_update, tensorflow_object_detection_api_pipeline_config, tensorflow_use_custom_operations_config, transformations_config"/>
		</cli_parameters>
	</meta_data>
	<quantization_parameters>
		<config>{
		'compression': {
			'algorithms': [
				{
					'name': 'AccuracyAwareQuantization',
					'params': {
						'drop_type': 'relative',
						'max_iter_num': 20,
						'maximal_drop': 0.01,
						'metric_subset_ratio': 0.2,
						'preset': 'performance',
						'stat_subset_size': 300,
						'tune_hyperparams': true
					}
				}
			],
			'dump_intermediate_model': true,
			'target_device': 'ANY'
		},
		'engine': {
			'models': [
				{
					'name': 'gaze-estimation-adas-0002',
					'launchers': [
						{
							'framework': 'dlsdk',
							'inputs': [
								{
									'name': 'left_eye_image',
									'type': 'INPUT',
									'value': '.*_left.png'
								},
								{
									'name': 'right_eye_image',
									'type': 'INPUT',
									'value': '.*_right.png'
								},
								{
									'name': 'head_pose_angles',
									'type': 'INPUT',
									'value': '.*.json'
								}
							],
							'adapter': 'gaze_estimation',
							'device': 'CPU'
						}
					],
					'datasets': [
						{
							'name': 'gaze_estimation_dataset',
							'data_source': 'PATH',
							'annotation_conversion': {
								'converter': 'gaze_estimation',
								'data_dir': 'PATH'
							},
							'annotation': 'PATH',
							'reader': {
								'type': 'combine_reader',
								'scheme': {
									'.*.png': 'opencv_imread',
									'.*.json': {
										'type': 'json_reader',
										'key': 'head_pose_angles'
									}
								}
							},
							'metrics': [
								{
									'type': 'angle_error',
									'presenter': 'print_vector'
								}
							],
							'_command_line_mapping': {
								'data_dir': 'PATH'
							}
						}
					]
				}
			],
			'stat_requests_number': null,
			'eval_requests_number': null,
			'type': 'accuracy_checker'
		}
	}</config>
		<version value="1.0"/>
		<cli_params value="{'quantize': None, 'preset': None, 'model': None, 'weights': None, 'name': None, 'ac_config': None, 'max_drop': None, 'evaluate': False, 'output_dir': 'PATH', 'direct_dump': True, 'log_level': 'INFO', 'pbar': False, 'stream_output': False, 'keep_uncompressed_weights': False}"/>
	</quantization_parameters>
</net>
